model_dir/checkpoint_actor_0.pth (torch_old, 83644 bytes, 10 tensors)

fc1.weight f4 [128, 24]
000000 13 45 2b bd 08 e2 29 be 4d 63 93 3b d4 8d 4e bc
       -0.04181392 -0.1659013 0.0044979216 -0.012607057
000010 1d d2 a9 bd 3f 97 25 3e 7a 7e 8c bd ef f9 93 3b
       -0.08292029 0.16170977 -0.06860061 0.0045158784
000020 58 37 21 3d 2b 55 b3 bd 18 bd c1 bd 66 36 64 be
       0.03935942 -0.08756479 -0.09459895 -0.22286376
000030 33 b2 3e be d9 91 c0 bc e8 a3 e4 bd c8 93 1c be
       -0.18622665 -0.023507046 -0.11164075 -0.15290749
000040 96 f3 7b 3d 54 62 57 3d ad 8a 9d 3d 27 24 49 bd
       0.0615116 0.052584007 0.07692466 -0.049106743
000050 12 59 64 be 24 24 b9 bb 81 57 2b bd 24 18 b4 bd
       -0.22299603 -0.0056500603 -0.041831497 -0.08793667
000060 43 23 d5 bd a0 1c 7a be f5 24 51 3d d8 94 02 be
       -0.10407116 -0.24424982 0.051060636 -0.12752092
000070 4a b4 8d bc 10 2e ff bd fa 67 06 bd 12 d4 df bd
       -0.017297883 -0.124599576 -0.032814004 -0.10929121
000080 4c 5f 1e be a9 5e 4f be 4a 0c ba 3c 6a 52 8d be
       -0.1546604 -0.20250954 0.022710938 -0.2760194
000090 53 ea 25 be 97 90 71 be 3d ab 07 bd dd ac 5b be
       -0.16202669 -0.23590313 -0.03312229 -0.21452661
0000a0 fb 96 85 bd 2b aa 69 be 26 8b d4 3c 2a 04 e8 3d
       -0.06522938 -0.2281882 0.025945257 0.11328919
0000b0 da d4 95 be e7 ac 6e be 1b c7 89 3c 39 05 be 3d
       -0.29263955 -0.23308145 0.016818574 0.0927834
0000c0 45 cb 28 be 06 76 a8 bd 22 81 8a 3d 0b e0 84 be
       -0.16483791 -0.08225636 0.067629114 -0.2595218
0000d0 24 40 85 bd 00 d8 e8 3b 39 bc 27 bd b7 c2 92 be
       -0.065063745 0.0071058273 -0.040950987 -0.2866418
0000e0 bd 70 29 bd 7d e6 d6 bc 10 90 c2 3c af d0 5f be
       -0.04136728 -0.026232952 0.023750335 -0.2185695
0000f0 06 e2 c4 3d 6c 3c e8 bc df fc b3 3d 53 1c 87 be
       0.09613423 -0.028349124 0.08788466 -0.26388797
000100 7e eb 78 39 b7 01 0c bd 14 05 50 3d 3b 0b 82 3e
       0.0002373885 -0.034181323 0.050786093 0.25399193
000110 ca 50 76 3d f2 ff 8b 3c 03 04 0e bd 9c 8b 04 3e
       0.06013564 0.017089818 -0.034671795 0.12943882
000120 3d d4 88 bd 14 91 39 3d 63 6a 9c 3c 4e b3 3d 3d
       -0.06681106 0.045304373 0.019093698 0.046313576
000130 28 ba e1 bd e7 f2 7e be c0 17 ab 3d 84 0d c2 bc
       -0.110218346 -0.24897347 0.08354139 -0.023688085
000140 d6 5c 06 be a5 6b 46 3d 68 fb 19 bc bf 96 33 be
       -0.13121352 0.0484425 -0.009398319 -0.17537974
000150 34 c8 9e bd 01 78 8b be 24 03 33 3c 34 4b 3a be
       -0.077530295 -0.27239993 0.010926042 -0.1819275
000160 1e 27 61 bc a3 a9 ac 3d b5 cc 93 3d 30 7d 25 be
       -0.013742236 0.08430793 0.07216779 -0.16161036
000170 98 51 f2 3c f3 03 9c be 86 a9 31 3d c7 d7 56 be
       0.029579923 -0.30471763 0.04337456 -0.2098075
000180 c1 db 78 bc b2 29 25 3e 15 81 09 bd 5e 82 31 3e
       -0.015189112 0.16129187 -0.033570368 0.17334887
000190 3c 92 f4 bd 42 f0 ed bd 1e 30 4c bd 24 e4 0e 3e
       -0.119419545 -0.11618091 -0.049850576 0.13954216
0001a0 b0 fb ab bd c6 a2 36 3e 93 48 98 bd 78 31 65 3b
       -0.08397615 0.1783553 -0.074357174 0.0034972113
0001b0 68 56 27 3e 67 38 b3 bb c7 67 a5 bd a3 57 39 bd
       0.16341555 -0.00546937 -0.080764346 -0.045249593
0001c0 66 69 dc 3c 77 bd 9f 3e ac 13 93 3c cf 57 85 39
       0.026905727 0.31199238 0.017953716 0.0002543316
0001d0 88 29 83 3e b7 8d 99 39 d3 d8 a7 bb 40 01 fa 3d
       0.25617623 0.0002928802 -0.005122283 0.1220727
0001e0 86 2c 6f 3d 74 2a e8 bd 91 df 1f 3d de 03 d9 bb
       0.05839207 -0.11336222 0.03903157 -0.0066227755
0001f0 79 80 c4 3d 82 5a b9 bd 98 21 8b bc ed 7f 8d bd
       0.09594817 -0.09050466 -0.016983792 -0.069091655
000200 76 c9 bd 3d 0f ba 48 bd 63 4d d3 3d 57 e3 0b 3e
       0.09266941 -0.049005564 0.10317495 0.13660942
000210 fe eb b3 bd 62 18 2f bd 38 f4 cb 3d d0 67 fe 3d
       -0.08785246 -0.042747863 0.099586904 0.124221444
000220 4c aa 60 3d 24 82 03 be 41 61 15 3e 5b c5 d9 3b
       0.054849908 -0.12842613 0.1458788 0.006645841
000230 5f fd 64 bd c9 19 66 3e 53 ff c6 3c 8f 07 10 3e
       -0.055905696 0.22470774 0.02429167 0.14065383
000240 11 98 87 3d 93 5e 76 3e 77 93 ac 3c d4 8b 49 be
       0.06620801 0.24059515 0.02106641 -0.19682246
000250 6f 92 43 3e 5e 0d 7c 3d 71 08 b3 3d f4 10 c4 bd
       0.19098829 0.061536185 0.087418444 -0.09573546
000260 95 ca 09 3d c8 18 6c 3e 80 49 74 3d 3a c8 82 be
       0.033640463 0.23056328 0.059640408 -0.25543386
000270 fc c1 87 3e 74 cf 6d bd 50 a5 f5 3a 24 e4 2a be
       0.26515186 -0.05805917 0.0018741284 -0.16688591
000280 21 20 39 3e 57 e8 70 3e 38 7c 0c 3e f6 36 ad be
       0.18078662 0.2352613 0.1371926 -0.33830994
000290 1a b9 4f 3e 78 a5 39 be 43 a1 b3 3d 69 9a 9f be
       0.20285454 -0.18129528 0.087709926 -0.31172493
0002a0 3e db d3 3d d3 2e 38 3e 3b 43 81 b8 b9 45 06 be
       0.103445515 0.17986612 -6.163722e-05 -0.13112535
0002b0 4c 1f e4 3d d8 f2 86 3c de 07 61 3c 77 cd c9 bd
       0.11138782 0.016473219 0.013734786 -0.098536424
0002c0 e1 1f 0f 3c 77 4f 97 3d 63 54 9d 3c ff 6d 98 be
       0.008735628 0.073882036 0.019205278 -0.2977142
0002d0 a2 a5 47 3e 46 f2 79 3e 74 1d 17 3c d5 52 9e be
       0.19496778 0.24408826 0.009223331 -0.3092257
0002e0 b4 51 99 bd 44 b4 19 3d 1d 5d c7 3d 57 af a0 be
       -0.07486287 0.03752543 0.09734557 -0.31383774
0002f0 8a 43 02 3d be 01 ef bc 0e ac da 3d 1c 83 e3 be
       0.03180269 -0.029175635 0.10677348 -0.44435966
000300 7b 2e 4a bd f2 18 12 3f f6 58 3a 3d ed 22 99 bd
       -0.049360733 0.57069314 0.045494996 -0.07477365
000310 be 4b 1d 3d 2c 57 de 3d 13 cc ba 3c c6 9e d4 bd
       0.03840231 0.108564705 0.022802388 -0.10381846
000320 39 25 01 3e 1e b3 08 3f 58 92 84 bd 82 3c 0e bd
       0.12611856 0.5339831 -0.06473225 -0.034725673
000330 07 b3 dc bd 87 a3 a6 bd 45 4c 14 3d 3c 42 36 3d
       -0.10776334 -0.08136659 0.03620555 0.04449676
000340 f7 9d ca 3d 94 ea eb 3e 9f 48 1a 3d c0 a6 f2 3d
       0.09893411 0.46077406 0.037666913 0.11848211
000350 32 3c ad be bb e6 ce 3d a2 35 c0 bc 97 0d 6e 3e
       -0.33834988 0.10102602 -0.023463074 0.23247372
000360 53 54 be 3c 8f f0 cc be 1f 73 81 3d 07 95 10 3d
       0.023233568 -0.40027282 0.06320786 0.035298374
000370 99 e5 1c bd 23 04 fd bb c2 b7 87 3a 7a ad a1 3d
       -0.0383049 -0.0077214404 0.0010354447 0.07894416
000380 e2 21 6d 3d 4c b1 e4 be 45 26 b0 bd 33 bb e6 3b
       0.05789364 -0.44666517 -0.08601049 0.007041359
000390 8f 1f f4 bd 58 22 e7 bc 94 18 72 3d 32 a0 2b 3d
       -0.11920082 -0.028214619 0.05910547 0.04190082
0003a0 15 fb c5 bc 90 55 df be aa 14 98 3c 49 d1 fb 3d
       -0.024167577 -0.43619967 0.01856454 0.12295777
0003b0 db 98 7d be 39 52 48 3e be 77 19 bd be bd 3a 3e
       -0.24765341 0.19562615 -0.03746771 0.18236443
0003c0 b5 f6 90 3d 06 e3 a0 3e 7f 83 63 3c 18 9c c1 3b
       0.07078306 0.31423205 0.013886332 0.0059085004
0003d0 92 18 e0 bb 74 5e 5b be fc 90 54 3d a6 c8 8d 3d
       -0.0068388665 -0.2142275 0.05189608 0.06923036
0003e0 5d 6b 90 bd dc 9e a7 3e 56 e6 a2 3c c6 a8 e0 bd
       -0.07051728 0.32738388 0.019885223 -0.10969691
0003f0 a9 70 30 be 96 f8 28 be 7d 07 c7 3d 91 85 c3 bc
       -0.17230476 -0.16501078 0.09718225 -0.0238674

fc1.bias f4 [128]
000000 83 89 75 be 0e 0a 1e 3d 4e 93 8c 3c e9 76 be 3c
       -0.23978238 0.038583808 0.017160084 0.02325006
000010 77 22 b6 bd 41 39 6b be e8 e3 46 3d dd 4d 1c 3e
       -0.088932924 -0.2297106 0.048557192 0.15264077
000020 91 cf 96 3e 4e 49 bf bd 95 06 56 3e a8 8b 6f be
       0.29455236 -0.09340154 0.20900948 -0.23393118
000030 82 9d 38 be 23 1d 03 3e fd 75 e2 bd 77 52 56 3d
       -0.18028834 0.12804084 -0.11057661 0.05232474
000040 60 36 10 3d 0b fc 9f 3d 15 d9 8b 3c da 95 09 3e
       0.035208106 0.07811745 0.017071286 0.1343607
000050 19 05 46 3d e5 29 64 bd 88 e7 85 3d b5 2e 13 be
       0.048344705 -0.055704016 0.06538302 -0.14373286
000060 ff 8e 6d bd 10 fe 48 3d 47 13 1f be 10 a1 1a bd
       -0.0579977 0.049070418 -0.15534697 -0.037751257
000070 62 a5 ee 3c 47 c5 8f be a8 c9 89 bd 63 23 84 be
       0.029131595 -0.28080198 -0.06727916 -0.25808248
000080 a5 56 68 be bf 6c 0c bb 0e 51 c7 bd 6d b7 6d 3d
       -0.22689302 -0.0021427122 -0.09732257 0.058036257
000090 2e bc 6c 3e a4 51 75 3d ac a4 0a 3e ef 34 d5 bd
       0.2311866 0.05989231 0.1353938 -0.10410487
0000a0 13 96 dd 3d 90 44 09 3e 40 f0 49 3b f3 18 25 3e
       0.1081964 0.13405061 0.0030813366 0.16122799
0000b0 28 37 8a bd f8 6f b8 3d 24 66 39 be 19 ec c4 3d
       -0.067488015 0.09005731 -0.1810537 0.096153446
0000c0 cb e4 05 3d ac 39 77 be 4e 6f 4c be ce c7 a4 3c
       0.032688897 -0.24143094 -0.19964334 0.020114806
0000d0 82 2f 1a 3e 97 fe 9e bd 03 71 1a 3d d8 ce c0 bd
       0.15057185 -0.07763403 0.037705433 -0.09414452
0000e0 b9 c5 18 3d a1 a5 09 3d 0d 17 b8 bd 4a 46 3c 3e
       0.037297938 0.03360522 -0.089887716 0.18386188
0000f0 c7 18 81 be 1e f7 b9 bd 93 f7 29 3e 88 6a d8 3b
       -0.25214216 -0.09080337 0.16598348 0.0066044964
000100 3b d8 16 3d 12 f0 90 be 01 5b 19 3e b3 5b 86 3d
       0.036827307 -0.2830816 0.14976121 0.06560459
000110 cd 7c 35 3d 04 2f 13 3e a0 82 70 bd 7d b6 75 be
       0.044308472 0.14373404 -0.058718324 -0.23995395
000120 c8 1d c4 3d d4 79 26 3e 4d d1 1f be 9f 44 22 3d
       0.09575993 0.16257411 -0.15607186 0.039616223
000130 ec 7f 24 bc 42 f2 62 be 28 2d 8e bc 4b 41 63 3d
       -0.010040265 -0.22162727 -0.017355517 0.05548219
000140 8b a8 73 bb d9 e3 89 bd 6e 63 22 be c0 46 1c be
       -0.0037179317 -0.067329116 -0.15858242 -0.15261364
000150 02 9a 01 3e db b4 08 be d3 9c 15 be 81 3a a5 bc
       0.12656406 -0.13350241 -0.14610605 -0.020169498
000160 03 e7 a9 bd a1 bf c8 3b 54 35 44 3d 28 de d7 3b
       -0.08296015 0.0061263596 0.04790242 0.0065877624
000170 27 14 c7 3d e8 3c ed 3c fb 3c ed bd 8f d6 48 3d
       0.09720641 0.028959706 -0.11583897 0.049032744
000180 f0 c6 e8 3d 45 e6 07 be be 88 13 be e9 37 f4 bd
       0.11366069 -0.13271435 -0.14407632 -0.119247265
000190 46 09 8c be ae 4d ae 3a 19 f5 4c 3d 88 da 09 be
       -0.27350825 0.0013298297 0.05003843 -0.1346227
0001a0 5d a5 ae bd 6c 5a d9 3d 66 e6 e0 bc a0 6f 49 3d
       -0.08527634 0.1061295 -0.027453613 0.04917872
0001b0 60 df ac 3d 04 b0 18 be da 36 46 3e 46 a4 9e 3d
       0.08441043 -0.14910895 0.19356862 0.077461764
0001c0 a4 73 d3 3d 57 2e 70 3d eb ba 9e bd dd 45 3c bd
       0.10324791 0.058637943 -0.077504955 -0.045965064
0001d0 3a 5a b8 3c 1a ff 36 be fb 2c 95 3d 25 6b 82 bd
       0.02250396 -0.17870751 0.0728397 -0.063680924
0001e0 7b 80 64 be 30 00 73 be 3f 54 63 3e 1f b6 cd bd
       -0.22314636 -0.2373054 0.22200106 -0.100445025
0001f0 18 27 dc bd aa 29 1c be 2b d4 bb 3d ac 45 0f 3d
       -0.10749644 -0.15250269 0.09171327 0.034978554

fc2.weight f4 [128, 128]
000000 4b 23 89 be 52 01 d3 bc 21 65 7d be 57 a8 2f 3d
       -0.2678474 -0.025757466 -0.24745609 0.04288515
000010 89 70 9b bd d1 42 78 3d a9 7e e2 3d 52 0e a7 3d
       -0.07589824 0.060610596 0.11059315 0.08157028
000020 d4 57 db be 36 5e 7c 3e d9 a5 33 be 8f f9 36 be
       -0.42840445 0.24645314 -0.17543735 -0.17868637
000030 75 9f e3 3d c8 34 21 be 33 7c ba 3d 94 b5 62 3d
       0.111143984 -0.1574279 0.0910572 0.055348948
000040 03 97 98 bc 0f a9 1c 3d fe e0 f7 bd 3a ea 15 be
       -0.018626695 0.038247164 -0.12103461 -0.14640132
000050 6c 51 14 3e 3a 9f 8e bd 2f 1f fa bd 89 41 e6 3d
       0.14484185 -0.06963964 -0.12212979 0.112429686
000060 68 a2 4a 3e e1 d5 29 3e eb da 8f be ad 3e e8 bb
       0.19788516 0.16585495 -0.2809671 -0.0070875497
000070 f2 a5 49 bd f9 5d 77 3e 02 75 83 bd 69 ea 5c 3d
       -0.049230523 0.24156941 -0.06418802 0.05393449
000080 f3 bc 00 3e 77 83 01 3e 73 3a f1 bc 0e 41 73 3e
       0.12572078 0.12647806 -0.029446816 0.23755285
000090 9a ca a8 bd 61 3e 88 bc 0b f2 35 3d 68 f7 01 3e
       -0.08241768 -0.016631307 0.044420283 0.12692034
0000a0 c0 04 83 be 3c 86 1b 3d b6 aa 67 be 2a 47 f0 3d
       -0.2558956 0.037969813 -0.22623715 0.117323235
0000b0 4d 14 79 3d 0a ea a5 3e a2 49 8d be e6 b6 ee 3c
       0.060810376 0.3240512 -0.2759524 0.029139947
0000c0 26 9e 57 be f7 1f ca bb fc f9 14 bd 15 c5 44 3b
       -0.21056423 -0.0061683613 -0.036371216 0.0030024697
0000d0 b2 cf fc bd 70 65 04 bf ee 6c 8f bd 7b 57 44 3e
       -0.12344302 -0.5171728 -0.070031986 0.19173996
0000e0 f2 f0 aa bd 72 13 86 3d 2b 45 39 3d 6f 66 53 3d
       -0.08346738 0.06546678 0.04523198 0.05161136
0000f0 1b cc 9d 3d 7a 90 d7 bb 40 72 f3 bd 66 74 d0 be
       0.07704946 -0.0065785022 -0.11887026 -0.40713805
000100 bf 05 45 bd c2 bc 17 3d bd b3 29 bd eb c0 1e 3e
       -0.048101183 0.037045248 -0.041431177 0.1550328
000110 34 51 1d 3d cf e3 15 bf f0 14 13 be 8b 03 1d 3e
       0.03840752 -0.58550733 -0.14363456 0.15333383
000120 76 4c d5 bb 11 44 54 bd 27 16 5b 3d d0 73 63 3c
       -0.006509359 -0.051822726 0.053487923 0.013882592
000130 52 a0 35 3c 7c 71 b4 3c 0c 0d 14 be df 66 94 3e
       0.011085587 0.02202677 -0.14458102 0.28984734
000140 30 bd 21 bd 6b 3b fd 3d b3 68 e5 bd ab c4 49 3d
       -0.039487064 0.12364849 -0.112016104 0.049259823
000150 00 56 a3 3e cc cf 81 be 97 c3 31 be 10 14 92 bd
       0.3190155 -0.2535385 -0.17359768 -0.07132733
000160 59 d1 f7 bd 11 60 88 bd 57 f9 6a be 9b d9 5b 3d
       -0.12100477 -0.06658948 -0.22946678 0.05367432
000170 89 ed 93 3d 50 e0 31 3e 7a a5 a0 3e 57 94 a2 3d
       0.072230406 0.17370725 0.3137625 0.0793845
000180 49 32 fd 3d 5b e4 3e 3e 5a ec 11 be d9 2f bc bd
       0.12363107 0.18641798 -0.14250317 -0.09188814
000190 70 ac 24 3d b2 f7 cc bc 55 f4 a2 3e 71 d1 6f 3e
       0.04020351 -0.025020454 0.31827036 0.2341974
0001a0 1f 65 7c 3d 85 93 31 3e be 90 85 3c 74 32 fa bd
       0.061619874 0.1734143 0.01630437 -0.122166544
0001b0 58 fc 31 bc 6c 96 5a 3e ee 53 35 be 08 58 53 bd
       -0.010863386 0.21346444 -0.17707798 -0.051597625
0001c0 14 3b bd be 54 93 88 bc 10 87 fb 3b 8a de 55 3d
       -0.36959136 -0.016671814 0.007676013 0.052214183
0001d0 c0 f7 98 be 73 d5 1f 3d 13 9c 66 be f0 c9 f6 3d
       -0.29876518 0.03902192 -0.22520475 0.12050235
0001e0 43 48 0e bd 0c 00 ae 3d 12 ab b2 be 0a 84 35 3d
       -0.034736883 0.08496103 -0.3489614 0.044315375
0001f0 8e c2 cb 3c 09 d1 95 3d f5 e6 8a 3d 87 ae cf be
       0.024873044 0.07315261 0.06782333 -0.4056284
000200 48 05 3d 3d 76 ad e4 3c 5c 05 64 3b 31 5e 04 3e
       0.046147615 0.027914744 0.0034793233 0.12926556
000210 51 df b7 3d 78 9c be 3d 01 82 65 3d c4 4e d5 3c
       0.08978141 0.09307188 0.056032185 0.026038535
000220 0a 8d 12 3d f6 af 88 bd 56 e3 61 3c 20 d4 2e be
       0.035779037 -0.06674187 0.013787111 -0.17073107
000230 17 4e fe 3d 23 56 4e 3d ae d3 15 3d 7a d6 4c 3d
       0.12417238 0.050375115 0.036578827 0.05000923
000240 fb 5e c0 bd 6c 8f 77 3d c1 51 97 bc 37 8e aa bd
       -0.09393116 0.060439512 -0.0184716 -0.083279066
000250 8d 34 2d 3d 0c c0 93 3d 84 f5 36 be a4 39 f5 bc
       0.042286444 0.072143644 -0.17867094 -0.029934712
000260 c6 16 5e be 1f e3 0b be 40 cc 7c bd 11 50 ec bd
       -0.21688375 -0.13660859 -0.061718225 -0.11538709
000270 4b 15 5a 3d d2 9e 19 ba 91 d5 7c be 74 8c 03 3e
       0.053242963 -0.0005860153 -0.24690844 0.12846547
000280 38 52 45 bd 53 06 3d bd f4 be e0 bc b4 f3 36 3e
       -0.048174113 -0.04614861 -0.027434804 0.17866403
000290 f8 83 20 be c8 c1 6a 3c 46 f5 a9 be 85 2d ea 3b
       -0.15675342 0.014328428 -0.3319494 0.0071465396
0002a0 80 17 9c 3d d0 80 e1 bd f9 49 27 3d 6f bc a7 bd
       0.0762167 -0.11010897 0.04084203 -0.08190238
0002b0 2e 92 dd 3c 82 8b 98 3e 21 93 21 bd dc 7f 5d 3c
       0.027047243 0.29793936 -0.039446954 0.013519254
0002c0 91 22 7b bd fb a1 ab bd 21 56 b7 bd 12 97 15 3e
       -0.061312262 -0.08380505 -0.08951975 0.1460841
0002d0 39 6f 92 bc 0b 37 0b be 24 9c 41 be 64 e3 80 3e
       -0.0178753 -0.13595216 -0.18907219 0.25173485
0002e0 70 a7 bc 3d 7f 18 91 3d e6 7d d1 bd 58 55 ce be
       0.09211624 0.070847504 -0.10229091 -0.40299487
0002f0 29 75 fe 3c 04 df 38 be fc ea 49 bd 45 d8 91 3d
       0.031061726 -0.18053824 -0.049296364 0.07121328
000300 f1 af 47 be 7f 33 83 bd 0d 57 e0 ba ae a9 6f bd
       -0.1950071 -0.064063065 -0.0017115787 -0.05851143
000310 ee 24 17 3e 41 a9 44 bd f2 3e cc 3c ce 67 00 3e
       0.14760181 -0.048012976 0.024932358 0.12539598
000320 6d dd 07 3d ea 57 96 3c 86 bd b9 bd 8d d5 02 3d
       0.033170152 0.018352468 -0.09069352 0.03194194
000330 0e 3d 77 bd 82 0e 05 bd 58 6c 9a bd 38 b9 4d 3e
       -0.06036096 -0.03248454 -0.07540196 0.20090187
000340 74 49 1e 3e 31 09 24 be a1 89 f1 bd 57 c7 57 bd
       0.15457708 -0.16019131 -0.11793829 -0.05268034
000350 86 83 23 be 5e 7b 91 bc 78 03 82 be 7b 41 48 3e
       -0.15968141 -0.017759021 -0.2539327 0.19556229
000360 b6 d0 2f be 46 34 2d bd 74 18 9d be 56 17 97 bd
       -0.1716946 -0.04228618 -0.3068272 -0.07377498
000370 b5 b7 09 3c 59 73 9a 3e e7 9c 00 3e fb bc aa bd
       0.008405616 0.30166128 0.12559853 -0.083368264
000380 88 7d 7b 3d 37 63 b6 3d a6 cb c3 3d ae 8f d1 bd
       0.061399013 0.089056425 0.09560327 -0.10232483
000390 69 e0 9a 3c 43 5a 7f 3e a0 f0 b5 bd b4 fb e5 3d
       0.018905835 0.24936776 -0.08883786 0.11229649
0003a0 d3 a7 98 be b6 5b ac bc 23 7c a3 3d 41 fb aa bc
       -0.2981554 -0.021039825 0.079826616 -0.02087176
0003b0 74 95 52 3e ec 8f 2f 3d da f3 41 bd 41 a3 d2 3d
       0.20564824 0.042861864 -0.047351696 0.102850445
0003c0 06 12 e9 bd 25 76 15 3c 38 f7 ac 3c 54 c6 ad bd
       -0.11380391 0.009122406 0.021113977 -0.08485094
0003d0 eb b5 3d be 90 7c 18 be 36 62 34 3d a9 20 35 be
       -0.18526427 -0.14891267 0.044038974 -0.1768824
0003e0 70 6a 6b bd 15 23 61 be d1 90 f0 3c 72 60 82 3d
       -0.057474554 -0.21986039 0.029365929 0.06366052
0003f0 3b 22 69 be 7a 88 c9 bc 91 d9 24 3c 92 6f 85 bd
       -0.22766964 -0.02460121 0.0100616375 -0.06515421

fc2.bias f4 [128]
000000 56 58 f3 bd c4 9b c8 bd 24 3e a1 3d 63 3a 01 3d
       -0.11882083 -0.09795335 0.078731805 0.031549823
000010 ee 6a 96 3d 42 c9 a5 3d 68 ce b1 3d 3b b2 93 bd
       0.07344614 0.080950275 0.08681947 -0.07211729
000020 50 5b 14 3d 66 66 08 bc fd 79 e1 3c 8e 6c 75 bd
       0.036219895 -0.008325195 0.027523989 -0.05991798
000030 92 6c 8a bd d3 69 72 bd fc 27 a5 3d 4c 0b 89 bd
       -0.067589894 -0.059182953 0.08064267 -0.06691608
000040 e3 21 76 3c 0b fc 5a bd 20 56 a8 3c 9c d9 0e bd
       0.015022728 -0.053463023 0.02054888 -0.034875497
000050 25 9e 94 3d 3c ad fb bd 1e 0e 81 bd 78 63 0d bd
       0.07256726 -0.12288901 -0.06301521 -0.03451869
000060 db 98 70 3d 9f 6e 82 bd dd 1b 9a bd 8f bc 18 3e
       0.058739524 -0.063687555 -0.07524846 0.1491568
000070 96 36 ec bc 58 19 10 be c0 79 92 3d 72 66 5f bc
       -0.028834622 -0.14072168 0.07152128 -0.013635265
000080 3c 68 7d 3d 27 92 9b bb b7 9a 80 bc 55 f1 c7 bc
       0.061866984 -0.0047476473 -0.015698774 -0.024407068
000090 d1 ad 88 bd 71 9d d2 bd a3 47 b8 bc 5a 99 8c bd
       -0.06673778 -0.10283936 -0.022495097 -0.06865187
0000a0 56 1a af bc 7a e7 c6 3d fd 36 36 3d 36 92 08 3e
       -0.021374863 0.097121194 0.044486035 0.13337025
0000b0 e7 34 b0 bc f7 42 20 be 66 39 58 ba 91 ee 3d bd
       -0.0215096 -0.15650545 -0.0008248299 -0.046370093
0000c0 73 ba 29 3e 99 6b aa bd 81 92 30 bd b8 51 c0 bc
       0.16575031 -0.08321304 -0.043108467 -0.023476467
0000d0 ac 9e 8e bd fe c3 8b bd 79 95 aa 3d 82 2e 2f 3c
       -0.06963858 -0.06824492 0.08329291 0.010692241
0000e0 ae fe 4e 3c 3e 1c fe bb c1 3e 4e 3d fd d8 a5 bc
       0.012633963 -0.0077548316 0.050352816 -0.02024507
0000f0 82 f4 ad 3a 1b 51 ac bc 30 a1 07 3d a2 b8 7a bc
       0.0013271722 -0.021034768 0.033112705 -0.015302809
000100 99 8a 2b bd 82 15 26 3d dc e1 62 bd fb e5 45 3b
       -0.041880224 0.040547855 -0.055391178 0.0030196893
000110 89 d9 e0 bc 4e 47 a1 bd a2 8a f4 3c 17 f1 fa bd
       -0.027447479 -0.078749284 0.029851262 -0.122530155
000120 56 64 9e bd 47 67 1c bd e0 9a b5 bd 79 62 f5 3d
       -0.07733981 -0.03818443 -0.08867431 0.11981673
000130 5d 27 16 3d ec 8a b4 3c 34 7f 73 bd 0c 96 a0 bc
       0.036658634 0.0220389 -0.059447482 -0.019602798
000140 c0 7e 06 be f7 8c a8 3d e0 b8 8f 3c 62 04 d6 3c
       -0.13134289 0.08230012 0.01754421 0.026125137
000150 54 87 1a bd 0b bd 5d 3d c8 48 b3 bc 08 77 7d 3d
       -0.037726715 0.054135364 -0.02188529 0.061881095
000160 30 a5 66 bb 80 62 91 3d bc 1a 7e bd bf 01 8a 3d
       -0.0035193674 0.070988655 -0.062037215 0.06738614
000170 10 22 25 bd b1 89 7e 3d 33 99 3b bc 25 17 0f be
       -0.040315688 0.06214303 -0.0114501 -0.13973673
000180 af a1 cf 3c 0a 78 26 bd a7 a1 ad 3d 77 9c ef bd
       0.025345651 -0.040641822 0.08478098 -0.11699765
000190 f2 44 0e 3d ab ce a5 3b a4 ac 1a bd d4 c5 a6 3d
       0.03473372 0.005060037 -0.0377623 0.081432015
0001a0 23 d1 6a 3d c0 c9 37 3c 25 10 75 3d 24 c5 02 3e
       0.057328355 0.011217535 0.05982985 0.12770516
0001b0 5b 58 5e 3d 11 05 48 bd 15 24 b8 3d 50 a0 5d 3d
       0.05428348 -0.048832957 0.08991257 0.054107964
0001c0 9f 8d 5d bd 1d 2e 82 3d 44 e7 23 be d1 c5 ef bd
       -0.05409014 0.06356452 -0.1600619 -0.11707652
0001d0 9c 8f 05 bd f7 39 7a bc bd e6 34 bc 8e c2 a9 3d
       -0.03260766 -0.015272609 -0.01104134 0.082890615
0001e0 2d 26 92 bd 6d e6 20 bd da 6b c3 bd 6f fd 62 3d
       -0.07136188 -0.03928225 -0.095420554 0.055417474
0001f0 b2 cc 0c be 0a 29 2c be fd 1d c4 bd 64 a8 88 bd
       -0.1374996 -0.1681253 -0.09576032 -0.06672743

fc3.weight f4 [2, 128]
000000 52 8c 06 bf bb 14 e6 3d ef 4e 11 3e b7 98 82 3e
       -0.5255786 0.11234423 0.14190267 0.25507137
000010 84 31 01 be 62 d1 45 be ee a0 27 be 29 5f dd bd
       -0.12616545 -0.19318154 -0.16369984 -0.10809166
000020 a9 0f a6 bc f2 d8 de 3b 13 1e 60 be 1c 2b 98 be
       -0.02027114 0.0068007642 -0.21886472 -0.2972039
000030 84 49 60 be 3a eb 81 bd 4a 54 1a 3e 42 2a c0 bb
       -0.21903044 -0.06343694 0.15071216 -0.0058644125
000040 09 04 af be b6 59 ee bc e2 e8 e2 be 43 c0 1c be
       -0.34182766 -0.029095512 -0.443183 -0.15307717
000050 35 f0 4c 3e 5a e5 6e be 02 de 85 be 89 13 12 3c
       0.20013507 -0.23329678 -0.2614594 0.00891579
000060 29 ca 70 bd b7 e1 6b bc 19 ca b2 3e 11 ed 4d 3d
       -0.058786545 -0.014397076 0.34919813 0.050274912
000070 07 29 36 be ad e7 74 bf 81 d8 ba bc 0a 11 c3 bd
       -0.17789088 -0.9566601 -0.022808315 -0.09524734
000080 f3 b7 9e bd eb 9f 90 bd e2 92 4e be d6 3b 8b be
       -0.07749929 -0.07061752 -0.20173219 -0.2719409
000090 8b ee d1 be be 79 00 bf 63 29 09 3e f7 78 13 bd
       -0.41002306 -0.50185764 0.13394694 -0.036004033
0000a0 09 80 c8 3d da a3 47 3e 64 e2 b0 3d 21 54 22 be
       0.09790046 0.19496098 0.086369306 -0.15852405
0000b0 25 11 b0 be 67 82 8a be e5 db b1 3d 89 80 37 be
       -0.3438808 -0.27052614 0.0868452 -0.17920126
0000c0 da 0f 01 bc 4b 0d 0a be c2 56 1d be 58 f6 64 3a
       -0.007877314 -0.13481633 -0.15365127 0.0008734218
0000d0 71 bf 5e bd fe 24 35 bd b6 79 00 be 7d b3 1f 3e
       -0.05438179 -0.04422473 -0.12546429 0.15595813
0000e0 39 d8 8a 3d ac f0 1f bd ec 43 87 3d e1 ad cf bd
       0.067795224 -0.039047882 0.06604752 -0.10140587
0000f0 fe da b4 be f3 e1 a2 be 92 e8 1a 3e a0 b0 8d be
       -0.35323328 -0.3181301 0.15127781 -0.27673817
000100 81 cc ec be ea ce d7 be 75 69 9d be 6b 3e 9e be
       -0.46249774 -0.4215005 -0.3074452 -0.30906996
000110 11 c9 0d bd 1e 33 6e be 8d f1 96 be a2 14 8b be
       -0.03461558 -0.23261687 -0.29481164 -0.2716418
000120 dc 01 f0 3e c3 84 51 3d 3b c3 50 3d 70 ac 04 3e
       0.4687642 0.051152002 0.050967436 0.12956405
000130 7d af 65 3e 85 ab 17 3e 6d ab 77 bd 25 73 7f 3e
       0.22430225 0.14811523 -0.06046622 0.24946268
000140 f6 41 0e be 95 7f 8a 3e 8e 08 a4 bd ac b6 13 be
       -0.1389235 0.27050462 -0.08009444 -0.14425153
000150 a9 17 10 be 32 32 25 be 0a 82 45 3e 4c 4c 21 3e
       -0.14071526 -0.16132429 0.19287887 0.15751761
000160 65 d0 64 be fa 0f 76 bd c3 fc de be 55 9a 2b be
       -0.22345121 -0.06007383 -0.43552217 -0.16758092
000170 3e 4a c9 3b c0 47 76 3e d9 52 ec 3c 96 9f 4f 3b
       0.0061428836 0.24050808 0.028848099 0.0031680814
000180 db 23 96 3d ca ca a7 3b 9b 50 b4 bd 2c 63 28 bf
       0.07331058 0.00512061 -0.08804437 -0.65776324
000190 98 25 8c 3d f3 23 94 be fb 5c f3 3b 3a 8d 0c 3e
       0.06843108 -0.28933677 0.0074268556 0.13725749
0001a0 af d9 88 3d da 85 f4 bd aa c3 ae 3a cd cf 0f be
       0.06682145 -0.11939593 0.0013333459 -0.14044113
0001b0 c3 10 59 3c de a8 b7 3e 42 65 d9 3d 0e cf 1c 3e
       0.013248625 0.35871023 0.106150165 0.1531336
0001c0 ca 4c 0b bd f9 82 d4 3d 52 f6 01 be b3 22 8a bd
       -0.03400878 0.103765436 -0.1269162 -0.067448996
0001d0 50 ba 04 3d b1 81 96 3c 6e 1c de bd cd 20 f2 3d
       0.032404244 0.018372389 -0.10845266 0.118226625
0001e0 32 5e c0 be 19 32 b7 bd 4e fd 81 be 22 eb 45 be
       -0.37571865 -0.08945102 -0.2538857 -0.19327977
0001f0 ae e2 0a 3d 31 d0 a9 bd 5a 0e 6e be e8 34 5c be
       0.033907585 -0.082916625 -0.23247662 -0.21504557
000200 87 4a f8 3d ee a8 2c be 29 67 b5 3d f0 32 8e be
       0.1212359 -0.16861317 0.08857567 -0.27773237
000210 23 9a 28 3e bd ec c0 bd c3 30 57 be 09 b8 d4 bd
       0.16465048 -0.09420154 -0.21014695 -0.103866644
000220 9a a1 0f 3e de fc 8e 3d 9f 2b a4 bd 37 10 8e bd
       0.1402649 0.06981824 -0.080161326 -0.069366865
000230 21 d4 0f bc a6 15 24 3e 96 8f e1 bd 59 40 f6 3d
       -0.008778603 0.16023883 -0.11013715 0.12023992
000240 22 5d 87 bd a1 66 ae be 68 e1 ea 3d 30 d4 36 3d
       -0.066095605 -0.34062675 0.11468774 0.04463595
000250 b3 9b 91 bd b3 4e bd be 4d 61 42 bf ac 0b 9f 3d
       -0.071097754 -0.36974105 -0.7592972 0.07765898
000260 6e ee f3 be 75 f9 5c 3e 38 2a 3a 3d 78 68 ba be
       -0.47642845 0.21579535 0.04545042 -0.36407828
000270 35 b9 16 be c3 80 81 be 37 b7 a7 be 6e 99 2e 3e
       -0.14719088 -0.2529355 -0.3275697 0.17050716
000280 de db ab 3d e6 84 0c be c0 f7 d4 3c c1 b1 34 3d
       0.08391546 -0.13722572 0.025997043 0.04411483
000290 8f 1b f2 be d8 af 29 bd 2b 3b 16 be f0 8b 9f 3e
       -0.4728665 -0.041427463 -0.14671008 0.3116145
0002a0 09 94 c3 3b 02 2a 3a bd fa 9e 56 be 09 59 52 bd
       0.005968575 -0.045450218 -0.20959082 -0.05135444
0002b0 be f6 bc bd 72 67 c1 3c 15 a4 2f 3d 28 6a ad bd
       -0.0922675 0.023608897 0.04288109 -0.08467513
0002c0 3b b5 90 be 79 50 a7 3d f0 a3 a0 be eb 6a ae 3c
       -0.28263268 0.08169646 -0.31375074 0.021291217
0002d0 d1 33 6e be 1c 22 fa 3d e1 84 0a bf 57 45 ca be
       -0.23261954 0.12213537 -0.5410901 -0.39506027
0002e0 4e d5 dc 3d 17 a1 f2 be 2f 97 78 3d de 65 61 be
       0.10782872 -0.47388527 0.060691055 -0.22011515
0002f0 19 eb a0 bd 5f 00 16 bd 62 71 a6 3d b3 ae 00 be
       -0.07857341 -0.036621448 0.08127095 -0.12566642
000300 71 7f a2 be c1 2d 3a bd 27 56 69 be 38 06 8f 3d
       -0.31737855 -0.04545379 -0.22786771 0.06983608
000310 10 7f 31 bf b7 c2 29 bf d1 73 ec 3d 8b d2 c5 3b
       -0.69334507 -0.66312736 0.11545528 0.0060370616
000320 46 48 74 3d ff b7 6a 3e 3a 4f a4 be 1f a7 0d be
       0.059639238 0.22921751 -0.32091695 -0.13833283
000330 43 70 ad be 8e 88 f9 be a3 f6 9c bc 3a 21 b6 bd
       -0.3387471 -0.48736995 -0.019160574 -0.08893056
000340 6c e2 6f 3d e0 77 b6 bd 2d f7 b9 be 12 38 f5 bd
       0.058565542 -0.08909583 -0.36321393 -0.11973585
000350 64 8c fc 3e 99 0b 8d 3b 84 23 ac be fa 92 cb bd
       0.4932586 0.004304361 -0.33620846 -0.09940143
000360 a2 e1 40 be 16 42 84 be 73 20 e5 3d 70 74 3b be
       -0.18836072 -0.2583167 0.1118783 -0.18306136
000370 58 73 0e 3d 83 be d8 be 3e 41 8e 3d 19 4e 1b 3f
       0.03477797 -0.4233285 0.06946038 0.6066604
000380 c5 57 db be 95 5e 48 3d 1e 26 5f bf 3f e4 1e 3d
       -0.428404 0.048918325 -0.8716754 0.03879189
000390 6f 18 5e 3d 16 12 37 be fc e2 2e 3c be 37 b6 bd
       0.05422252 -0.17877993 0.0106742345 -0.08897351
0003a0 bb aa 62 3e 49 db 6b be 5a 4a ee 3c 39 86 a2 bc
       0.22135441 -0.2303287 0.029088188 -0.019839393
0003b0 0f cc 58 3d e4 20 80 bd 9e d5 04 3e 5f 48 50 3d
       0.05292898 -0.062562734 0.12972113 0.05085027
0003c0 cd 27 1d 3e 4b f1 84 be 1a b7 3b 3d ff 7a f0 be
       0.15347214 -0.25965342 0.045828916 -0.4696884
0003d0 02 34 fc 3d a4 5f 8c 3d 64 b0 f3 3c 4d dd 3e 3d
       0.12314607 0.068541795 0.029747196 0.046597768
0003e0 96 ef bb 3a 1d 5a 5f bf d7 4e 82 be 44 0d 4a be
       0.001433837 -0.87246877 -0.25450775 -0.19731623
0003f0 63 fb 85 be 3f 90 60 3e a8 68 95 3e ba 0e 05 be
       -0.26168355 0.21930026 0.2918141 -0.12993899

fc3.bias f4 [2]
000000 38 bb d4 3d 9a f4 69 3d
       0.10387272 0.057118036

bn.weight f4 [128]
000000 00 00 80 3f 00 00 80 3f 00 00 80 3f 00 00 80 3f
       1.0 1.0 1.0 1.0
000010 00 00 80 3f 00 00 80 3f 00 00 80 3f 00 00 80 3f
       1.0 1.0 1.0 1.0
000020 00 00 80 3f 00 00 80 3f 00 00 80 3f 00 00 80 3f
       1.0 1.0 1.0 1.0
000030 00 00 80 3f 00 00 80 3f 00 00 80 3f 00 00 80 3f
       1.0 1.0 1.0 1.0
000040 00 00 80 3f 00 00 80 3f 00 00 80 3f 00 00 80 3f
       1.0 1.0 1.0 1.0
000050 00 00 80 3f 00 00 80 3f 00 00 80 3f 00 00 80 3f
       1.0 1.0 1.0 1.0
000060 00 00 80 3f 00 00 80 3f 00 00 80 3f 00 00 80 3f
       1.0 1.0 1.0 1.0
000070 00 00 80 3f 00 00 80 3f 00 00 80 3f 00 00 80 3f
       1.0 1.0 1.0 1.0
000080 00 00 80 3f 00 00 80 3f 00 00 80 3f 00 00 80 3f
       1.0 1.0 1.0 1.0
000090 00 00 80 3f 00 00 80 3f 00 00 80 3f 00 00 80 3f
       1.0 1.0 1.0 1.0
0000a0 00 00 80 3f 00 00 80 3f 00 00 80 3f 00 00 80 3f
       1.0 1.0 1.0 1.0
0000b0 00 00 80 3f 00 00 80 3f 00 00 80 3f 00 00 80 3f
       1.0 1.0 1.0 1.0
0000c0 00 00 80 3f 00 00 80 3f 00 00 80 3f 00 00 80 3f
       1.0 1.0 1.0 1.0
0000d0 00 00 80 3f 00 00 80 3f 00 00 80 3f 00 00 80 3f
       1.0 1.0 1.0 1.0
0000e0 00 00 80 3f 00 00 80 3f 00 00 80 3f 00 00 80 3f
       1.0 1.0 1.0 1.0
0000f0 00 00 80 3f 00 00 80 3f 00 00 80 3f 00 00 80 3f
       1.0 1.0 1.0 1.0
000100 00 00 80 3f 00 00 80 3f 00 00 80 3f 00 00 80 3f
       1.0 1.0 1.0 1.0
000110 00 00 80 3f 00 00 80 3f 00 00 80 3f 00 00 80 3f
       1.0 1.0 1.0 1.0
000120 00 00 80 3f 00 00 80 3f 00 00 80 3f 00 00 80 3f
       1.0 1.0 1.0 1.0
000130 00 00 80 3f 00 00 80 3f 00 00 80 3f 00 00 80 3f
       1.0 1.0 1.0 1.0
000140 00 00 80 3f 00 00 80 3f 00 00 80 3f 00 00 80 3f
       1.0 1.0 1.0 1.0
000150 00 00 80 3f 00 00 80 3f 00 00 80 3f 00 00 80 3f
       1.0 1.0 1.0 1.0
000160 00 00 80 3f 00 00 80 3f 00 00 80 3f 00 00 80 3f
       1.0 1.0 1.0 1.0
000170 00 00 80 3f 00 00 80 3f 00 00 80 3f 00 00 80 3f
       1.0 1.0 1.0 1.0
000180 00 00 80 3f 00 00 80 3f 00 00 80 3f 00 00 80 3f
       1.0 1.0 1.0 1.0
000190 00 00 80 3f 00 00 80 3f 00 00 80 3f 00 00 80 3f
       1.0 1.0 1.0 1.0
0001a0 00 00 80 3f 00 00 80 3f 00 00 80 3f 00 00 80 3f
       1.0 1.0 1.0 1.0
0001b0 00 00 80 3f 00 00 80 3f 00 00 80 3f 00 00 80 3f
       1.0 1.0 1.0 1.0
0001c0 00 00 80 3f 00 00 80 3f 00 00 80 3f 00 00 80 3f
       1.0 1.0 1.0 1.0
0001d0 00 00 80 3f 00 00 80 3f 00 00 80 3f 00 00 80 3f
       1.0 1.0 1.0 1.0
0001e0 00 00 80 3f 00 00 80 3f 00 00 80 3f 00 00 80 3f
       1.0 1.0 1.0 1.0
0001f0 00 00 80 3f 00 00 80 3f 00 00 80 3f 00 00 80 3f
       1.0 1.0 1.0 1.0

bn.bias f4 [128]
000000 00 00 00 00 00 00 00 00 00 00 00 00 00 00 00 00
       0.0 0.0 0.0 0.0
000010 00 00 00 00 00 00 00 00 00 00 00 00 00 00 00 00
       0.0 0.0 0.0 0.0
000020 00 00 00 00 00 00 00 00 00 00 00 00 00 00 00 00
       0.0 0.0 0.0 0.0
000030 00 00 00 00 00 00 00 00 00 00 00 00 00 00 00 00
       0.0 0.0 0.0 0.0
000040 00 00 00 00 00 00 00 00 00 00 00 00 00 00 00 00
       0.0 0.0 0.0 0.0
000050 00 00 00 00 00 00 00 00 00 00 00 00 00 00 00 00
       0.0 0.0 0.0 0.0
000060 00 00 00 00 00 00 00 00 00 00 00 00 00 00 00 00
       0.0 0.0 0.0 0.0
000070 00 00 00 00 00 00 00 00 00 00 00 00 00 00 00 00
       0.0 0.0 0.0 0.0
000080 00 00 00 00 00 00 00 00 00 00 00 00 00 00 00 00
       0.0 0.0 0.0 0.0
000090 00 00 00 00 00 00 00 00 00 00 00 00 00 00 00 00
       0.0 0.0 0.0 0.0
0000a0 00 00 00 00 00 00 00 00 00 00 00 00 00 00 00 00
       0.0 0.0 0.0 0.0
0000b0 00 00 00 00 00 00 00 00 00 00 00 00 00 00 00 00
       0.0 0.0 0.0 0.0
0000c0 00 00 00 00 00 00 00 00 00 00 00 00 00 00 00 00
       0.0 0.0 0.0 0.0
0000d0 00 00 00 00 00 00 00 00 00 00 00 00 00 00 00 00
       0.0 0.0 0.0 0.0
0000e0 00 00 00 00 00 00 00 00 00 00 00 00 00 00 00 00
       0.0 0.0 0.0 0.0
0000f0 00 00 00 00 00 00 00 00 00 00 00 00 00 00 00 00
       0.0 0.0 0.0 0.0
000100 00 00 00 00 00 00 00 00 00 00 00 00 00 00 00 00
       0.0 0.0 0.0 0.0
000110 00 00 00 00 00 00 00 00 00 00 00 00 00 00 00 00
       0.0 0.0 0.0 0.0
000120 00 00 00 00 00 00 00 00 00 00 00 00 00 00 00 00
       0.0 0.0 0.0 0.0
000130 00 00 00 00 00 00 00 00 00 00 00 00 00 00 00 00
       0.0 0.0 0.0 0.0
000140 00 00 00 00 00 00 00 00 00 00 00 00 00 00 00 00
       0.0 0.0 0.0 0.0
000150 00 00 00 00 00 00 00 00 00 00 00 00 00 00 00 00
       0.0 0.0 0.0 0.0
000160 00 00 00 00 00 00 00 00 00 00 00 00 00 00 00 00
       0.0 0.0 0.0 0.0
000170 00 00 00 00 00 00 00 00 00 00 00 00 00 00 00 00
       0.0 0.0 0.0 0.0
000180 00 00 00 00 00 00 00 00 00 00 00 00 00 00 00 00
       0.0 0.0 0.0 0.0
000190 00 00 00 00 00 00 00 00 00 00 00 00 00 00 00 00
       0.0 0.0 0.0 0.0
0001a0 00 00 00 00 00 00 00 00 00 00 00 00 00 00 00 00
       0.0 0.0 0.0 0.0
0001b0 00 00 00 00 00 00 00 00 00 00 00 00 00 00 00 00
       0.0 0.0 0.0 0.0
0001c0 00 00 00 00 00 00 00 00 00 00 00 00 00 00 00 00
       0.0 0.0 0.0 0.0
0001d0 00 00 00 00 00 00 00 00 00 00 00 00 00 00 00 00
       0.0 0.0 0.0 0.0
0001e0 00 00 00 00 00 00 00 00 00 00 00 00 00 00 00 00
       0.0 0.0 0.0 0.0
0001f0 00 00 00 00 00 00 00 00 00 00 00 00 00 00 00 00
       0.0 0.0 0.0 0.0

bn.running_mean f4 [128]
000000 00 00 00 00 00 00 00 00 00 00 00 00 00 00 00 00
       0.0 0.0 0.0 0.0
000010 00 00 00 00 00 00 00 00 00 00 00 00 00 00 00 00
       0.0 0.0 0.0 0.0
000020 00 00 00 00 00 00 00 00 00 00 00 00 00 00 00 00
       0.0 0.0 0.0 0.0
000030 00 00 00 00 00 00 00 00 00 00 00 00 00 00 00 00
       0.0 0.0 0.0 0.0
000040 00 00 00 00 00 00 00 00 00 00 00 00 00 00 00 00
       0.0 0.0 0.0 0.0
000050 00 00 00 00 00 00 00 00 00 00 00 00 00 00 00 00
       0.0 0.0 0.0 0.0
000060 00 00 00 00 00 00 00 00 00 00 00 00 00 00 00 00
       0.0 0.0 0.0 0.0
000070 00 00 00 00 00 00 00 00 00 00 00 00 00 00 00 00
       0.0 0.0 0.0 0.0
000080 00 00 00 00 00 00 00 00 00 00 00 00 00 00 00 00
       0.0 0.0 0.0 0.0
000090 00 00 00 00 00 00 00 00 00 00 00 00 00 00 00 00
       0.0 0.0 0.0 0.0
0000a0 00 00 00 00 00 00 00 00 00 00 00 00 00 00 00 00
       0.0 0.0 0.0 0.0
0000b0 00 00 00 00 00 00 00 00 00 00 00 00 00 00 00 00
       0.0 0.0 0.0 0.0
0000c0 00 00 00 00 00 00 00 00 00 00 00 00 00 00 00 00
       0.0 0.0 0.0 0.0
0000d0 00 00 00 00 00 00 00 00 00 00 00 00 00 00 00 00
       0.0 0.0 0.0 0.0
0000e0 00 00 00 00 00 00 00 00 00 00 00 00 00 00 00 00
       0.0 0.0 0.0 0.0
0000f0 00 00 00 00 00 00 00 00 00 00 00 00 00 00 00 00
       0.0 0.0 0.0 0.0
000100 00 00 00 00 00 00 00 00 00 00 00 00 00 00 00 00
       0.0 0.0 0.0 0.0
000110 00 00 00 00 00 00 00 00 00 00 00 00 00 00 00 00
       0.0 0.0 0.0 0.0
000120 00 00 00 00 00 00 00 00 00 00 00 00 00 00 00 00
       0.0 0.0 0.0 0.0
000130 00 00 00 00 00 00 00 00 00 00 00 00 00 00 00 00
       0.0 0.0 0.0 0.0
000140 00 00 00 00 00 00 00 00 00 00 00 00 00 00 00 00
       0.0 0.0 0.0 0.0
000150 00 00 00 00 00 00 00 00 00 00 00 00 00 00 00 00
       0.0 0.0 0.0 0.0
000160 00 00 00 00 00 00 00 00 00 00 00 00 00 00 00 00
       0.0 0.0 0.0 0.0
000170 00 00 00 00 00 00 00 00 00 00 00 00 00 00 00 00
       0.0 0.0 0.0 0.0
000180 00 00 00 00 00 00 00 00 00 00 00 00 00 00 00 00
       0.0 0.0 0.0 0.0
000190 00 00 00 00 00 00 00 00 00 00 00 00 00 00 00 00
       0.0 0.0 0.0 0.0
0001a0 00 00 00 00 00 00 00 00 00 00 00 00 00 00 00 00
       0.0 0.0 0.0 0.0
0001b0 00 00 00 00 00 00 00 00 00 00 00 00 00 00 00 00
       0.0 0.0 0.0 0.0
0001c0 00 00 00 00 00 00 00 00 00 00 00 00 00 00 00 00
       0.0 0.0 0.0 0.0
0001d0 00 00 00 00 00 00 00 00 00 00 00 00 00 00 00 00
       0.0 0.0 0.0 0.0
0001e0 00 00 00 00 00 00 00 00 00 00 00 00 00 00 00 00
       0.0 0.0 0.0 0.0
0001f0 00 00 00 00 00 00 00 00 00 00 00 00 00 00 00 00
       0.0 0.0 0.0 0.0

bn.running_var f4 [128]
000000 00 00 80 3f 00 00 80 3f 00 00 80 3f 00 00 80 3f
       1.0 1.0 1.0 1.0
000010 00 00 80 3f 00 00 80 3f 00 00 80 3f 00 00 80 3f
       1.0 1.0 1.0 1.0
000020 00 00 80 3f 00 00 80 3f 00 00 80 3f 00 00 80 3f
       1.0 1.0 1.0 1.0
000030 00 00 80 3f 00 00 80 3f 00 00 80 3f 00 00 80 3f
       1.0 1.0 1.0 1.0
000040 00 00 80 3f 00 00 80 3f 00 00 80 3f 00 00 80 3f
       1.0 1.0 1.0 1.0
000050 00 00 80 3f 00 00 80 3f 00 00 80 3f 00 00 80 3f
       1.0 1.0 1.0 1.0
000060 00 00 80 3f 00 00 80 3f 00 00 80 3f 00 00 80 3f
       1.0 1.0 1.0 1.0
000070 00 00 80 3f 00 00 80 3f 00 00 80 3f 00 00 80 3f
       1.0 1.0 1.0 1.0
000080 00 00 80 3f 00 00 80 3f 00 00 80 3f 00 00 80 3f
       1.0 1.0 1.0 1.0
000090 00 00 80 3f 00 00 80 3f 00 00 80 3f 00 00 80 3f
       1.0 1.0 1.0 1.0
0000a0 00 00 80 3f 00 00 80 3f 00 00 80 3f 00 00 80 3f
       1.0 1.0 1.0 1.0
0000b0 00 00 80 3f 00 00 80 3f 00 00 80 3f 00 00 80 3f
       1.0 1.0 1.0 1.0
0000c0 00 00 80 3f 00 00 80 3f 00 00 80 3f 00 00 80 3f
       1.0 1.0 1.0 1.0
0000d0 00 00 80 3f 00 00 80 3f 00 00 80 3f 00 00 80 3f
       1.0 1.0 1.0 1.0
0000e0 00 00 80 3f 00 00 80 3f 00 00 80 3f 00 00 80 3f
       1.0 1.0 1.0 1.0
0000f0 00 00 80 3f 00 00 80 3f 00 00 80 3f 00 00 80 3f
       1.0 1.0 1.0 1.0
000100 00 00 80 3f 00 00 80 3f 00 00 80 3f 00 00 80 3f
       1.0 1.0 1.0 1.0
000110 00 00 80 3f 00 00 80 3f 00 00 80 3f 00 00 80 3f
       1.0 1.0 1.0 1.0
000120 00 00 80 3f 00 00 80 3f 00 00 80 3f 00 00 80 3f
       1.0 1.0 1.0 1.0
000130 00 00 80 3f 00 00 80 3f 00 00 80 3f 00 00 80 3f
       1.0 1.0 1.0 1.0
000140 00 00 80 3f 00 00 80 3f 00 00 80 3f 00 00 80 3f
       1.0 1.0 1.0 1.0
000150 00 00 80 3f 00 00 80 3f 00 00 80 3f 00 00 80 3f
       1.0 1.0 1.0 1.0
000160 00 00 80 3f 00 00 80 3f 00 00 80 3f 00 00 80 3f
       1.0 1.0 1.0 1.0
000170 00 00 80 3f 00 00 80 3f 00 00 80 3f 00 00 80 3f
       1.0 1.0 1.0 1.0
000180 00 00 80 3f 00 00 80 3f 00 00 80 3f 00 00 80 3f
       1.0 1.0 1.0 1.0
000190 00 00 80 3f 00 00 80 3f 00 00 80 3f 00 00 80 3f
       1.0 1.0 1.0 1.0
0001a0 00 00 80 3f 00 00 80 3f 00 00 80 3f 00 00 80 3f
       1.0 1.0 1.0 1.0
0001b0 00 00 80 3f 00 00 80 3f 00 00 80 3f 00 00 80 3f
       1.0 1.0 1.0 1.0
0001c0 00 00 80 3f 00 00 80 3f 00 00 80 3f 00 00 80 3f
       1.0 1.0 1.0 1.0
0001d0 00 00 80 3f 00 00 80 3f 00 00 80 3f 00 00 80 3f
       1.0 1.0 1.0 1.0
0001e0 00 00 80 3f 00 00 80 3f 00 00 80 3f 00 00 80 3f
       1.0 1.0 1.0 1.0
0001f0 00 00 80 3f 00 00 80 3f 00 00 80 3f 00 00 80 3f
       1.0 1.0 1.0 1.0
