model_dir/checkpoint_critic_1.pth (torch_old, 84176 bytes, 9 tensors)

fcs1.weight f4 [128, 24]
000000 b4 84 45 bd 19 d1 27 3d d7 9d 86 bc 34 2b 05 b9
       -0.04822226 0.040970895 -0.016432686 -0.00012699963
000010 f8 a6 e2 bb ec 8d 51 bd d2 61 8e bc ae 7c 73 bb
       -0.006916877 -0.051160738 -0.017380629 -0.0037153172
000020 f1 36 06 bd ce 2c e6 3d 5a 7e 09 bd fc 9d 75 3d
       -0.03276724 0.112390146 -0.033567764 0.05996512
000030 41 b8 9c bd 31 07 b1 bd 50 00 fe 3c 46 68 7c bd
       -0.07652331 -0.0864395 0.031006008 -0.06162288
000040 45 90 c5 3d 8c b0 61 3d d2 ba 2b 3d 67 2a 31 ba
       0.09646658 0.05510001 0.041926213 -0.00067583326
000050 4d 54 4c be bc c3 67 bd 00 5f bb bd d1 80 86 3d
       -0.19954033 -0.05658315 -0.09148979 0.065675385
000060 72 8e 14 3d 4c 93 4a 3a 3b 23 13 3d 7c 51 5f bd
       0.03626866 0.00077276374 0.03592227 -0.05452107
000070 74 42 a7 bd 69 9b 26 bd 82 75 5a 3c 28 f8 e5 bd
       -0.08166972 -0.040675554 0.01333368 -0.11228973
000080 8b b2 85 3d e1 b3 9b 3d 6b f0 28 3c d6 15 96 3c
       0.06528195 0.076026686 0.010311226 0.018320959
000090 04 25 1c bd a3 d1 2f be 39 3b fb 3a 1f 41 ff bc
       -0.03812124 -0.17169814 0.001916743 -0.031158982
0000a0 9e 1a c8 3d c2 d8 e7 ba e5 a4 1c 3d 35 0e 37 3b
       0.09770702 -0.00176885 0.038243193 0.0027932052
0000b0 89 35 38 be db 30 1c 3d 12 04 f1 ba 8f e7 87 3c
       -0.17989172 0.03813253 -0.0018388054 0.016589908
0000c0 f3 8c 4f bd 40 98 ad 3d 5e 36 f8 3c 6a ea 38 3b
       -0.05067153 0.08476305 0.030299362 0.0028215894
0000d0 1b 7f 48 3d 19 e1 13 3e c2 53 0c bb df a1 ea bb
       0.048949342 0.14441337 -0.0021412228 -0.00716041
0000e0 c4 63 e1 bc e3 fe 4f bd e9 ce 41 3c 37 a3 65 bb
       -0.027513392 -0.05078019 0.011829116 -0.003503991
0000f0 db a7 e1 3d c6 e0 21 3e 56 dd 1a bd 36 1a c2 3b
       0.11018344 0.158084 -0.03780874 0.0059235347
000100 43 bf 8e bd 49 f7 05 bd 32 95 ed 3c 00 04 21 3b
       -0.06970074 -0.032706533 0.029001806 0.0024569035
000110 20 ac f4 bb f1 c3 c8 be c8 a1 5e 3c 1b c6 a5 bc
       -0.007466808 -0.3921199 0.013588376 -0.020236066
000120 e0 47 b6 bd 7a 0f 04 bd 43 93 80 3d 9f d8 5a bc
       -0.08900428 -0.032241322 0.06278088 -0.013357311
000130 e0 42 90 3c b2 bd 3d 3e b9 37 d8 bc 04 5d b3 3d
       0.017610013 0.18529394 -0.026393758 0.08757976
000140 de 1a 29 3d ac 99 88 3a e9 3e 7b bc 81 80 ca 3c
       0.04128539 0.0010421774 -0.015334823 0.024719479
000150 50 55 d9 bc 0a 88 4b 3e ef dd 06 3c 7b 23 15 bd
       -0.026529938 0.19876114 0.008231624 -0.03641079
000160 a3 98 f0 3c fa d2 fb bd f4 8f 5e 3b 03 27 93 3c
       0.029369658 -0.122961 0.0033960314 0.017962938
000170 ea f6 55 3e bb 88 15 bf 18 2f 65 bb 70 15 35 bd
       0.20894971 -0.5841176 -0.0034970697 -0.044209898
000180 e8 9e 99 3d 15 f6 f4 ba 8d 56 8f bd ba d6 d2 bd
       0.07501012 -0.0018689061 -0.0699893 -0.10294862
000190 9e 99 11 be b1 80 ba bd 6e f0 5b bd 55 b6 2c 3d
       -0.14218757 -0.09106577 -0.05369609 0.042166073
0001a0 d4 9b 96 3d a8 63 03 bd b5 0c 1d 3d 50 46 d0 bd
       0.073539406 -0.03207746 0.038342196 -0.10169661
0001b0 61 af c1 39 87 9b e6 bd 36 02 c6 bc 77 83 21 be
       0.00036942496 -0.11260133 -0.024170976 -0.15772806
0001c0 07 60 c5 3d 75 6a c9 3d 50 b2 25 bc 93 2e b6 bc
       0.096374564 0.09834758 -0.010113314 -0.022239005
0001d0 78 ec 68 3e 6e 80 a4 3c 48 93 5d 3c ab 31 81 3c
       0.22746456 0.020080771 0.013523884 0.015770754
0001e0 1a ec 07 3d 00 d0 2a bd 06 49 4f 3d a5 a3 d7 bc
       0.03318415 -0.04170227 0.05060675 -0.026323149
0001f0 6e 54 36 3c 7c c6 26 3d 3e cd 9b 3c 72 ca 50 3d
       0.011128528 0.040716633 0.019018766 0.050974317
000200 16 ab 07 3c 0c 3b bb 3d e5 01 0a bd 7a 84 6e 3b
       0.008280536 0.09142122 -0.033693213 0.003639488
000210 15 38 4f 3c 04 73 a1 be 4e 72 2e 3d 3c 9c 25 bd
       0.012647648 -0.31533062 0.04258948 -0.0404322
000220 92 46 74 bc 2a d8 5f bd 3a c8 3a bd 5b 68 aa 3c
       -0.014909403 -0.05464951 -0.045601107 0.020801714
000230 32 a4 aa bd 4a 57 82 bf 2a fe 42 3d 44 f0 b5 bc
       -0.08332099 -1.0182889 0.04760567 -0.022209294
000240 9b f2 a4 3c 00 57 98 3c 3d 4d 45 bb d9 10 2a bd
       0.020135215 0.018596172 -0.0030105852 -0.041519973
000250 b4 75 27 bd 5e 23 55 bd 99 bb ac bc 52 92 df bb
       -0.040883735 -0.052035682 -0.021085547 -0.0068228627
000260 c2 2e 89 3d ee 5d 1a be f9 10 a4 3b 91 07 96 bd
       0.066983715 -0.15074894 0.005006906 -0.07325662
000270 25 d2 fa bb 49 cc 5a 3d 74 24 f9 3c e2 f5 74 bd
       -0.0076544457 0.053417478 0.03041289 -0.059804805
000280 04 95 4c 3d 16 a1 2f be eb 9d a6 bc 8b fe ab bd
       0.0499468 -0.17151293 -0.020338973 -0.083981596
000290 cd 84 c2 bd a6 da 10 3e 53 58 11 3d 5a ae d6 bc
       -0.09497986 0.14145908 0.035484623 -0.026206184
0002a0 8b d1 db 3c f4 ce 5f 3e 2b 73 fb 3b 0c f5 8f bc
       0.026833316 0.2185629 0.007673641 -0.017572902
0002b0 11 f2 52 3d 3c 7d aa 3d 52 2a 60 bc 23 94 35 bb
       0.051500384 0.08324668 -0.013681965 -0.0027706705
0002c0 59 70 1e 3c 06 db 43 3e 15 4a 00 bd da b2 87 bd
       0.00967034 0.1912652 -0.03132065 -0.0662591
0002d0 c8 af 9d bc 0f f7 62 3c aa 59 aa 3c 94 83 e7 bd
       -0.019248858 0.013852849 0.020794708 -0.113043934
0002e0 9d ae 44 3b 98 2a 1e 3e 60 6d 12 bd fc ff 8f 3d
       0.0030011304 0.15445936 -0.03574884 0.07031247
0002f0 ce e6 70 be c7 02 b0 be 67 05 8c 3d 70 52 98 3d
       -0.23525545 -0.3437712 0.06836968 0.07437599
000300 2c be 13 bd 46 1a 3a 3d f2 1e 20 3b 10 4b 34 3d
       -0.036070034 0.045435213 0.0024432507 0.044016898
000310 4c 9b 8a bd 46 a8 c6 bd 2a be df bb f4 6a 29 3d
       -0.06767902 -0.09700064 -0.0068280892 0.041361764
000320 ea eb 01 bd 96 8d d1 3d 4f 8e 2b 3d c7 81 c4 bd
       -0.031719126 0.102320835 0.041883763 -0.095950656
000330 7b cd fb 3d 8f 27 6f 3c f7 24 3d bd a2 12 55 3d
       0.12295052 0.014596834 -0.04617783 0.052019723
000340 87 ae 4d bd e5 d4 dc bc 97 13 fc 3c 9c cc 4c bd
       -0.05021527 -0.026956985 0.03077106 -0.04999982
000350 2e 93 4b bd a1 ff 48 be 51 64 06 3c 55 ce a0 bc
       -0.04970091 -0.19628765 0.008202628 -0.019629637
000360 7b 4e 08 3e 50 4c 69 3e a0 90 64 3c 8e a2 8e bd
       0.13311188 0.22783017 0.013950497 -0.069645986
000370 97 ac fa bd 66 79 a2 bd 0e 66 07 bd b3 d1 4e bd
       -0.1223995 -0.07933311 -0.03305631 -0.050492954
000380 de 5e ce 3c 13 48 3f 3e 38 e3 b4 bd 96 32 b5 bd
       0.02519172 0.18679838 -0.08832401 -0.08847539
000390 f0 77 41 3d c8 e2 44 3e 7f 5c 98 3d f1 b1 2d 3d
       0.047233522 0.19227135 0.07439517 0.042406026
0003a0 28 f0 31 3c 1a 52 e8 3d 5b b6 f9 3c 66 6b 54 bd
       0.01086048 0.11343785 0.030482462 -0.051860236
0003b0 87 24 ae bd 1c e2 45 3c d3 c2 f6 3c 13 ed 80 3d
       -0.08503061 0.012077834 0.030122196 0.06295218
0003c0 ad fd e2 3d 59 1d 89 3d 80 e6 a3 3d 03 16 b1 3c
       0.11083541 0.06695051 0.08002949 0.021616941
0003d0 53 97 0d 3e ef 54 a7 3d 3a 74 8f bd c8 b9 13 bd
       0.13827257 0.08170497 -0.0700459 -0.036065847
0003e0 03 9f 91 3d 93 4d a6 3d d0 ac 22 bd 72 11 be 3b
       0.07110407 0.08120265 -0.039715588 0.0058004195
0003f0 26 39 1a bd f5 c7 7a bc c2 8d 58 3d 0f 94 9d 3d
       -0.037652157 -0.0153064625 0.052869566 0.076942556

fcs1.bias f4 [128]
000000 0a 47 81 be 4a 21 b6 bd 9b ee 28 bd aa df 13 3d
       -0.2524951 -0.08893068 -0.041243177 0.036101975
000010 ef 1a 93 bd e0 52 1a bd a7 5f 3e 3a b6 94 25 3e
       -0.071828716 -0.037676692 0.0007262178 0.1617001
000020 2c 0b 59 3e cb fa 66 bd 00 2e aa bb 55 cf 8c be
       0.21195668 -0.05639152 -0.005193472 -0.27501932
000030 e9 9b 71 be b7 59 aa 3e 10 46 33 be b2 2c 15 3e
       -0.23594631 0.33271572 -0.17507195 0.14567831
000040 f8 17 0d 3c 42 4c 07 3e 2e 05 24 be 1b a0 f7 3d
       0.008611672 0.13212684 -0.16017601 0.120910846
000050 8f 95 04 3e b9 d5 33 3c 56 db 9e bd b2 5b 3c be
       0.12947677 0.010976248 -0.07756679 -0.18394354
000060 62 70 87 3e 45 2f a6 3d cb 09 a2 bd b0 c5 f6 bc
       0.2645293 0.08114485 -0.07912024 -0.030123562
000070 96 7e 89 bd 2b f9 1e be ac 5c 89 3d 94 b0 4b be
       -0.067135975 -0.15524738 0.06707129 -0.19891578
000080 1b bd 46 be 33 5f 92 3d 45 e0 45 3d 41 35 4f 3e
       -0.19408076 0.07147064 0.048309583 0.20235159
000090 e6 04 5f 3e 4f 08 0e 3e 65 28 05 3e 85 50 c7 3d
       0.21779212 0.13870357 0.1300369 0.09732155
0000a0 a4 32 46 3e 81 d2 df 3d 0f cb ad 3c 99 ff 9d 3d
       0.19355255 0.10928822 0.02121499 0.07714767
0000b0 3c 55 02 be 18 26 09 bc 42 c1 c2 bd 74 78 4a 3e
       -0.12727827 -0.008370899 -0.09509517 0.19772512
0000c0 cf 29 85 3c 2a cb 69 be bd aa c3 be 6f 8a 21 3d
       0.016255287 -0.22831407 -0.382162 0.03943866
0000d0 50 02 1f 3e c2 f2 6d ba e2 a9 a7 bd 1e 65 ce bd
       0.15528226 -0.0009077006 -0.081866995 -0.1007788
0000e0 42 6f 37 3c 18 bc 85 3d 62 c6 6c be a8 a4 1f 3e
       0.0111959595 0.06530017 -0.23122552 0.15590155
0000f0 2e 27 c8 bd d4 2e d0 3c 53 b8 63 3e 1a d0 84 3d
       -0.09773098 0.025412954 0.22238283 0.06485005
000100 b9 de 6e bd 77 1c 88 be 0c e8 48 3e 9b ae 0c bd
       -0.058317874 -0.26584217 0.19619769 -0.034346204
000110 3e 17 9a 3d 3d 7a ec bb 89 34 fd 3c e4 78 19 3c
       0.07523964 -0.0072167204 0.03090884 0.0093672015
000120 8b 17 57 3d 89 bd 5a 3e 23 64 e7 bd f2 94 a0 bd
       0.052512687 0.21361364 -0.112983964 -0.07840909
000130 4f ad 1c bc 0b b2 83 bb 01 88 97 bd aa 4e f8 3d
       -0.009562804 -0.004019027 -0.073989876 0.12124379
000140 dd be 0e be 43 28 21 be df 0e bf bd a1 83 4b bd
       -0.13939996 -0.15738015 -0.09329008 -0.049686078
000150 4f a0 5c 3e 9c a5 81 be 90 91 14 bd 5e f2 2d 3e
       0.21545528 -0.25321662 -0.03627163 0.16986987
000160 04 57 58 bd 7e 47 2f 3d d6 b3 3a 3e 64 89 04 be
       -0.05281736 0.04279279 0.18232664 -0.12943035
000170 ec 94 47 3d 03 01 e3 3d 11 c2 32 be 20 2a 13 3d
       0.048726007 0.11084177 -0.17456843 0.035928845
000180 45 af a9 bd f9 08 81 be b0 4a 81 be 90 40 0e be
       -0.08285383 -0.25202158 -0.25252295 -0.13891816
000190 23 71 66 be ad 59 6a bc 6b 1c 4a 3e 00 0c 2f be
       -0.22504096 -0.014303607 0.19737403 -0.17094421
0001a0 d6 07 83 bd 7d 2f 1a 3e bf 55 df 3c 48 cd 87 3c
       -0.06397979 0.15057178 0.027262567 0.016577378
0001b0 3b 70 b5 bc 50 3c 14 be 5d 0c bc bc 85 3c 03 3e
       -0.022148242 -0.14476132 -0.022955114 0.12816055
0001c0 fc 1d 40 3e a6 d3 8a bd de 37 33 3e ec 73 b4 bd
       0.18761438 -0.0677865 0.1750178 -0.08811173
0001d0 80 c5 00 bd c6 69 c4 3d cb 9f 1b 3e 70 37 b3 bd
       -0.03143835 0.09590487 0.15197675 -0.08750808
0001e0 a6 a2 1c be ab 9a ca bd ba 62 90 3d d7 50 0e 3d
       -0.1529642 -0.09892782 0.070500806 0.034745064
0001f0 44 da 08 bd 68 52 7a be 7c 14 da 3c 26 25 e4 3c
       -0.03341128 -0.24445498 0.026621096 0.027849745

fc2.weight f4 [128, 130]
000000 c2 8b 3f be eb c8 3d 3d af 5e 9f 3d 16 ef 62 be
       -0.18705657 0.04633419 0.07781731 -0.22161517
000010 60 86 a0 bb 5a 96 75 bc 1f 97 35 3d d0 5f 6b 3c
       -0.0048988312 -0.01498946 0.044333573 0.014366105
000020 8a 13 57 bd e2 42 a5 bd 4b 91 99 be 64 01 ff bd
       -0.05250887 -0.080693975 -0.29993662 -0.12451437
000030 f8 16 3b be c4 95 d2 3d f8 77 c2 3d 96 b1 16 3d
       -0.1827048 0.10282472 0.094955385 0.036790453
000040 7e e7 e7 bc e6 0b b2 bb 3b af 69 bd ce 11 7b bd
       -0.028308626 -0.0054335473 -0.05705188 -0.061296277
000050 e4 cb 3a 3d d2 75 ca 3c 79 10 8c be da 46 ae 3b
       0.0456046 0.024714384 -0.27356318 0.0053185048
000060 1a 00 b7 3c 23 a3 31 be 17 dc 4a be 2d e1 fb bd
       0.022338916 -0.17347388 -0.1981052 -0.12298808
000070 d5 98 1a bc 47 80 eb be 0a 67 11 3e aa 92 3a bd
       -0.009435852 -0.45996305 0.14199463 -0.045550026
000080 8e 90 c0 bd a3 85 96 bc 10 ef e6 bd 36 fa 02 3b
       -0.094025716 -0.01837427 -0.11276066 0.0019985563
000090 48 fa 8c 3c 31 9e 4b bd 18 0c 05 be 35 89 a4 3d
       0.017209187 -0.04971141 -0.12992895 0.08033983
0000a0 ed c2 48 3d a7 7a 67 be 3f cf 12 3e 3c 64 aa bc
       0.04901402 -0.22605382 0.1433687 -0.020799749
0000b0 e1 6b 5b be 29 8c 06 be f9 50 65 3d b4 3b 8f bd
       -0.21427871 -0.13139404 0.055985425 -0.06993809
0000c0 cb 45 08 bd 1c 8f 50 3d 78 f5 e9 3c 1d 7d 01 be
       -0.033269685 0.05091773 0.028559431 -0.12645383
0000d0 5a 21 d7 3d 03 7f 2e 3b 76 fc 24 b9 3c 12 35 3d
       0.10504408 0.0026625998 -0.00015734308 0.044206843
0000e0 e2 76 2c 3e dd 41 07 3c c4 94 99 bd a5 ee ad bb
       0.16842225 0.008255449 -0.07499078 -0.0053079897
0000f0 a2 6d 99 3b 7c 55 43 3d c2 59 34 3c da 9b ef bd
       0.0046822587 0.047688946 0.011007728 -0.11699648
000100 91 c4 0e 3d 9a bb aa bc 8a d3 5c 3c 09 64 91 3d
       0.03485543 -0.020841409 0.013478169 0.07099158
000110 14 7c 00 be 09 ff 31 bd a2 e8 a1 3d e5 24 0c be
       -0.12547332 -0.04345611 0.07905699 -0.13685949
000120 00 4f 65 3c d1 d2 bd 3d fa ba a5 3d 17 c3 df bc
       0.013995886 0.09268726 0.080923036 -0.027314706
000130 98 fc 81 3d e6 b8 24 be bd 5c 41 be a1 66 7b ba
       0.063470066 -0.16086158 -0.18883033 -0.0009590183
000140 e0 f7 99 bd 27 62 81 be c1 7f 36 3d 7c cf b3 be
       -0.075179815 -0.25270197 0.04455543 -0.35119236
000150 03 a2 6d bd b9 25 0d 3d d9 c7 b4 bd e7 e9 ae bd
       -0.058015835 0.034459803 -0.088271804 -0.08540707
000160 4e f6 85 3d 03 e3 f3 3d 73 d7 20 be 8a 79 53 bd
       0.065411195 0.119085334 -0.15707187 -0.05162958
000170 ca 69 56 bd f7 01 12 be 57 28 09 3d 31 a1 2f 3d
       -0.052346982 -0.14258562 0.033485737 0.042878333
000180 6c a5 55 bd c1 09 a4 3c e1 5e de bc a5 2d bd 3c
       -0.05215971 0.020024182 -0.027144851 0.023093054
000190 06 37 cc bd a2 78 d0 bd 45 ba 30 be af c3 03 bd
       -0.099714324 -0.10179259 -0.17258556 -0.03216904
0001a0 88 fe 8b bd 79 d5 98 bd 02 c0 28 be 00 47 a9 3d
       -0.06835657 -0.07462592 -0.16479495 0.08265495
0001b0 1d e8 06 3e 72 80 83 3d ce f2 5d be 16 67 c9 3d
       0.13174482 0.064209834 -0.21674654 0.09834115
0001c0 a9 8c 88 3d a5 65 a9 bd 3c 47 6c be 14 cc 82 bb
       0.06667454 -0.0827134 -0.23074049 -0.003991613
0001d0 69 9d 93 3d 92 15 cf bd 6b ca 1a be fc 6e d4 3d
       0.07207758 -0.10111536 -0.15116279 0.10372731
0001e0 43 c5 11 be 36 ef 17 be 37 dd 0c 3c 75 77 95 3a
       -0.14235406 -0.14837345 0.008597664 0.0011403399
0001f0 0e bb df bd 0f 35 c6 bc 1b 91 fa bd 3d 99 06 bc
       -0.1092435 -0.024195222 -0.12234708 -0.008215246
000200 ad 07 7d bd e8 68 0c 3d 09 15 99 3b 48 88 91 b9
       -0.0617749 0.034279734 0.004671697 -0.00027758093
000210 0c 7d 4f be f0 5d 45 3c ed 99 65 bd 71 76 40 3d
       -0.20262545 0.012046322 -0.056055 0.046987955
000220 10 0e b2 3c 09 32 95 bd 8a 1a 89 bd 8c 19 37 bd
       0.021735221 -0.07284934 -0.06694515 -0.044702098
000230 bf 5b 65 bc ed db 2a 3c e0 19 fe bc 6c 7b be 3c
       -0.013998925 0.010428411 -0.031018198 0.023252212
000240 78 e7 96 bd aa 9c 12 be 8b b0 a5 bd 15 3f 7e 3d
       -0.07368368 -0.14317575 -0.080903135 0.06207188
000250 88 42 f9 bd 4d 59 c7 3c ac 1b 16 bd 4d 82 49 3d
       -0.12170893 0.024334574 -0.036647484 0.04919653
000260 82 cb 53 bc 18 1d 66 bd 2b df ff 3c 58 70 de bc
       -0.012926938 -0.05618009 0.031234344 -0.027153179
000270 3a e3 b5 3d b5 ef f8 3d ea 63 e7 bd 8e 32 ea 39
       0.08881231 0.121550955 -0.11298354 0.00044669624
000280 59 6e 37 3b e7 26 72 bc 16 2f b5 bd 52 39 d1 bc
       0.0027989356 -0.014779783 -0.088468716 -0.025540028
000290 12 a7 f8 3c eb 5e 8e 3d 94 af 27 bd 28 38 42 3d
       0.030353103 0.06951698 -0.04093893 0.047416836
0002a0 a7 b1 7d bd e3 bb 58 3d 11 3a 54 bc 45 67 c8 3b
       -0.061937 0.052913558 -0.012953297 0.0061158263
0002b0 9e 6a 82 bc ee be e2 bc 72 26 b4 bd 8c bd 8d bc
       -0.01591998 -0.027678933 -0.08796395 -0.017302297
0002c0 d6 71 76 3c 88 d6 77 3d 6f 2b 20 be 02 d9 91 bd
       0.015041789 0.060507327 -0.15641569 -0.07121469
0002d0 49 a8 db 3c a9 13 86 bd 83 4e 1f be 6a 22 30 bd
       0.026813643 -0.065467186 -0.15557294 -0.04300157
0002e0 57 68 9f bd 4b cd c0 bc 0a 61 f0 bd b5 7a b4 bb
       -0.07783573 -0.023535391 -0.11737259 -0.005507792
0002f0 6d a3 86 bd 36 cc 56 bd 16 3d ae bb 4d 68 a0 3d
       -0.0657414 -0.052440844 -0.0053173406 0.07832394
000300 ef ca d4 bc 38 d7 ca bd 17 3a 2a bc b0 99 d4 bc
       -0.025975673 -0.09904331 -0.010389826 -0.02595219
000310 8c 89 78 39 3e 98 6d 3d 90 8b b6 bb 4f 23 3f bb
       0.00023702363 0.058006518 -0.0055708364 -0.0029165333
000320 cc 46 bd 3c d0 3a a1 3d a8 e9 04 be 52 0c 06 be
       0.023105048 0.07872546 -0.12979758 -0.13090637
000330 3a bd bd bd 61 15 9b bd bf 9e ab bd 7a 7d c2 bc
       -0.09264608 -0.07572437 -0.08379888 -0.023741473
000340 74 94 0d bc c1 56 af bb 94 a7 bc 3d 2f 7e 6d bc
       -0.008641351 -0.005350918 0.092116505 -0.014495417
000350 79 30 bd bd 04 70 a5 3d f9 f1 14 bd 27 28 9e 3a
       -0.09237761 0.08078006 -0.036363576 0.001206641
000360 7d c9 b2 bd 85 9e 26 bd ce 66 53 bc c7 3e d7 bd
       -0.08729837 -0.04067852 -0.0129029285 -0.10510021
000370 c1 d3 fa bc fb 3c 4d 3d 2b 27 2e bd 16 08 8f bc
       -0.03061855 0.050106984 -0.042517822 -0.01745991
000380 31 0f dc 3c 82 94 84 bd ed 3d de bd ad a9 4e 3d
       0.026862713 -0.06473638 -0.10851655 0.050454784
000390 4a 36 3a be 65 f6 0d 3d b4 98 b0 bd be 68 b6 bd
       -0.18184772 0.03465881 -0.08622876 -0.08906697
0003a0 70 5d 55 3d e3 c8 c5 3b ec 64 8c bd 53 b1 e4 bc
       0.052091062 0.0060359105 -0.06855187 -0.027916586
0003b0 35 ed 2d 3c 50 c5 fc bc c3 b2 06 3d 56 41 1c bd
       0.010615637 -0.030855805 0.032885324 -0.038148247
0003c0 21 f6 b4 3b 43 df fb bd 84 6c d1 3b 04 f9 a5 bc
       0.005522505 -0.12298443 0.00639111 -0.020260341
0003d0 eb 35 20 3e 02 02 63 bd 18 99 7f bd a7 ba 9c 3d
       0.15645568 -0.055421837 -0.06240186 0.076527886
0003e0 b0 2f b2 3c ab 57 9b bd 9f 41 31 bd 11 ef ca bd
       0.021751255 -0.07585081 -0.04327547 -0.099088795
0003f0 24 58 b8 bc 59 40 27 3d af 10 0d 3d 2b b6 6b bc
       -0.022502966 0.04083285 0.03443974 -0.014386694

fc2.bias f4 [128]
000000 e4 2f 61 bd 79 4c 9c 3d e5 69 01 be 52 99 f2 3c
       -0.054977313 0.076317735 -0.12638052 0.029614124
000010 3a c2 ac 3c aa 38 1b be 1f d1 10 bd d8 b7 97 bc
       0.021088708 -0.15158334 -0.035355683 -0.01852028
000020 e4 f2 23 bd 59 35 d4 3b 48 13 0a bd 1a 48 29 3d
       -0.04002656 0.006476086 -0.033709794 0.041328527
000030 c3 59 1e bd f7 5f bf 3d 12 73 98 3c 51 26 64 bb
       -0.038659822 0.09344476 0.018609557 -0.0034812877
000040 30 28 de bd 0a 9a 3f be 43 27 b0 bd de 2f fe 3b
       -0.10847509 -0.18711105 -0.086012386 0.007757171
000050 59 06 ff bd 80 9c ad bd 3e b0 1f bd b8 24 a8 bb
       -0.124523826 -0.08477116 -0.038986437 -0.0051313303
000060 b6 d4 f4 3c de 1e bf bd 08 55 64 bd c0 99 47 3d
       0.029886585 -0.09332059 -0.055745155 0.04873061
000070 ca 22 39 bd b5 32 21 3d ee 78 d3 bc 2a 06 a4 3d
       -0.045199193 0.039355 -0.0258145 0.08008988
000080 31 5f b4 bd 00 7e 91 bd 0d f9 22 3d 52 18 03 be
       -0.08807219 -0.07104111 0.039788295 -0.12802246
000090 c1 ae 64 3c 12 ba 02 be d3 60 fb bd 6b cf a9 bd
       0.01395768 -0.12766293 -0.12274327 -0.08291515
0000a0 89 c4 fb bd 11 f9 5b be 5d 3b a2 bd ee 77 b9 bd
       -0.122933455 -0.2148173 -0.07921479 -0.09056078
0000b0 97 de ab bd 46 c5 55 3c df 8b dd bd 19 7a 91 bd
       -0.08392065 0.013047522 -0.10817694 -0.071033664
0000c0 80 f6 39 3d 4d 3c 5c bc 3a ea 01 3d ac 89 34 be
       0.045401096 -0.013442111 0.031717516 -0.17630643
0000d0 5a 74 aa 3d 2f cf 14 3d 5a da 64 bd 7d 62 a3 3d
       0.083229735 0.0363304 -0.0558723 0.079777695
0000e0 62 7f fc bc a6 11 4f 3e cd be 1c 3e 47 ee 57 3d
       -0.03082246 0.20221576 0.1530716 0.052717473
0000f0 d4 8e df bc 05 7a 33 3d ab 23 ad bd 21 31 d0 3c
       -0.027289785 0.04381754 -0.08454069 0.025414051
000100 fb 5e bb bd 5b f0 42 be 43 85 c7 3d 31 08 10 bc
       -0.091489755 -0.19037001 0.097422145 -0.0087910155
000110 3f ff 93 3d fe 7a e8 3c 8d 6e 21 3d d3 27 4e bd
       0.07226419 0.02837896 0.03941207 -0.050330948
000120 c3 40 28 be b1 c3 25 3d 79 b0 32 bd 6d 2d 2c 3d
       -0.16430955 0.04046983 -0.04362533 0.04203551
000130 a5 83 14 3d 33 10 3b bd 74 51 b7 3d c9 3f 1a 3d
       0.03625836 -0.045669746 0.08951083 0.037658487
000140 4f 4e a3 3d 99 4a 6e bd 4d 2b 2a 3d 13 ab aa 3c
       0.079739206 -0.05817661 0.0415452 0.020833528
000150 8f 21 18 bd e9 9b cb 3c e9 6f 50 bd e0 1a e5 bc
       -0.03714138 0.024854617 -0.050887976 -0.027966917
000160 43 2d fd bc 88 29 05 bd fe 23 1c 3d 7e 41 c7 3d
       -0.030905372 -0.03251031 0.038120262 0.097292885
000170 73 55 ac bd 6d 74 af 3d 0d aa 38 3d c3 bb a3 bd
       -0.08414736 0.08567128 0.045084048 -0.07994797
000180 d9 3b 35 bd 62 95 ae bd 93 40 cc 3d 50 82 94 3d
       -0.04424653 -0.08524586 0.09973254 0.07251418
000190 56 8a 28 bb 9e c0 69 3a 42 63 86 3d 11 27 36 3c
       -0.002571722 0.0008916947 0.06561901 0.011117713
0001a0 38 57 06 3d ef ae 66 3b 58 5f 14 3d a2 ea 38 3d
       0.032798022 0.0035199483 0.03622374 0.04514564
0001b0 de 64 03 3d 23 66 17 bd ef 21 0b bd 2c fc a3 3c
       0.032078616 -0.03696264 -0.03396791 0.020017706
0001c0 eb 8d ab bd 3b 87 e7 bc e3 5e e1 bd 49 c6 13 3c
       -0.08376678 -0.028262725 -0.11004426 0.009019443
0001d0 63 cc 77 3d 6e 38 b4 bd b0 a3 9b bd 60 d1 5e bd
       0.060497653 -0.087998256 -0.0759958 -0.054398894
0001e0 78 3a a9 3c 99 11 b9 3c d7 98 34 bc 81 ee 38 3d
       0.020657763 0.022591399 -0.011022768 0.04514933
0001f0 f6 4b 92 bd 2f 5c 65 3d 51 a2 4b bc 9b 2b 8d 3d
       -0.07143395 0.055996116 -0.012428836 0.06893083

fc3.weight f4 [1, 128]
000000 cb 26 f8 3c c8 9f d3 bd 0d 70 00 3e c7 49 a7 bd
       0.030291935 -0.1033321 0.12542744 -0.08168369
000010 48 9a c7 bd d7 0f 9f bd d0 f7 c4 3c 4b a2 66 3d
       -0.09746224 -0.07766693 0.024043947 0.05630712
000020 c8 ea 82 3d 39 f7 c9 bd 0a 95 8b 3d 19 b9 a5 3d
       0.06392437 -0.09861607 0.06815536 0.08091945
000030 3d 9d cc bc e6 d5 27 3d fa 3c 30 bd fc 18 ab bd
       -0.02497732 0.040975474 -0.0430269 -0.08354375
000040 cc 99 a1 bc 15 3b 66 bd 88 cc d9 3a ad 27 0a 3d
       -0.019726656 -0.05620869 0.0016616741 0.033729244
000050 01 f0 6d bc 2b 7f 2e 3d 88 3d a1 3d 4f d1 27 bb
       -0.014522553 0.042601746 0.07873064 -0.0025606935
000060 a5 53 18 bd 5c f1 f4 bc 63 ce 31 bd c7 13 b0 3d
       -0.037189145 -0.029900245 -0.043409716 0.08597522
000070 d2 1a e3 bc 86 95 36 3d 2f af ba bd 52 92 83 3c
       -0.02772275 0.04457619 -0.09115445 0.016060982
000080 89 a6 4e bd 53 00 72 3c ae 16 f9 3c ed c2 ed 3c
       -0.05045179 0.014770585 0.030406322 0.029023612
000090 df f7 eb ba fa 5a 4e bd e1 c1 d5 3c f9 89 62 3b
       -0.0018002948 -0.05037973 0.026093425 0.0034567101
0000a0 96 ff c1 bd ae 80 2a be 02 13 1d bb 53 d8 74 bd
       -0.09472577 -0.1665065 -0.0023967628 -0.059776615
0000b0 6a 7a fb bd 44 8a c1 3c 54 75 6c bd 4e 94 e2 bc
       -0.12279208 0.0236255 -0.05772908 -0.027658608
0000c0 ad 8b 04 3d eb 04 a0 bc aa 7c a5 3d 73 50 16 3d
       0.032359768 -0.019533595 0.080804184 0.036697816
0000d0 9c eb b6 3d 1b d9 05 be b4 35 cf bd 81 86 8c 3d
       0.08931658 -0.130711 -0.10117665 0.06861592
0000e0 28 f8 7b bd 50 68 59 bd cd 7a c9 3e f1 26 f0 3a
       -0.061515957 -0.053077996 0.39351502 0.0018322152
0000f0 f3 63 46 3d 7a 29 cd 3c da 55 c6 3c d2 7b 44 3d
       0.048435163 0.025044192 0.02421086 0.047969647
000100 45 0d 87 bd bf db a2 bd b6 b4 bd 3d 99 0f ed 3c
       -0.06594328 -0.079520695 0.092629835 0.028938102
000110 a1 d7 1f bd 3d 6f 26 bd 38 bc 6f 3c b1 87 0c bd
       -0.039024 -0.04063343 0.014632277 -0.034309093
000120 9a cd 80 bd 54 42 bd bd 58 4c 1e 3d ea 58 50 37
       -0.062892154 -0.09241167 0.038647026 1.2418468e-05
000130 0b 0a aa 3d 0c 48 80 3d d3 8d d1 bd 32 74 40 3c
       0.08302697 0.06263742 -0.10232129 0.011746453
000140 10 f6 c5 3c f2 c1 d7 bd 2b 1c 03 3e e7 04 78 3b
       0.024165183 -0.10535039 0.12803714 0.003784472
000150 a2 44 68 3d 7d 2a 5c bd df 9d 4d bd 31 6c ac 3d
       0.05670608 -0.053751457 -0.050199386 0.084190734
000160 66 89 02 bd 7d 3a b7 3d d4 59 f0 bc 5c 8e 1c 3e
       -0.031869315 0.08946703 -0.029339708 0.15288681
000170 00 57 fe bc 7c c7 7b 3e 54 06 43 bd cc ba e0 3c
       -0.031047344 0.24587816 -0.047613457 0.027432822
000180 91 65 b8 bc ad b1 2c 3d cd 01 9f 3c 87 14 86 bc
       -0.022509368 0.042161632 0.019410038 -0.01636721
000190 f7 bc 5b 3d 9b ac 91 3c 26 b5 c5 3c 1c c6 9f 3c
       0.053647008 0.0177825 0.02413423 0.019503646
0001a0 d8 0a b7 3d 2d 28 1a bd 29 90 e6 3d 94 c8 80 3d
       0.08937615 -0.03763597 0.11257965 0.06288257
0001b0 99 4c da bd 6c 4d 90 3d 8d d9 74 3c 8a 72 40 3d
       -0.10659141 0.07046017 0.014944446 0.046984233
0001c0 b0 03 00 3d 51 88 25 3d 9e 40 94 3a db bc 50 bd
       0.031253517 0.040413205 0.0011310761 -0.050961357
0001d0 75 b4 a6 3c 67 de 94 bd bd 04 8b 3c f1 a6 89 bd
       0.02034972 -0.072689824 0.016970033 -0.06721295
0001e0 ce 62 67 3c bd df 81 3c 9d f9 be bd 5c eb 49 3d
       0.014122678 0.015853757 -0.09324954 0.04929672
0001f0 e6 ff 32 3d 0c 92 68 3c 4b 31 a2 bd 0d f9 27 3d
       0.043701075 0.014194977 -0.07919558 0.041008998

bn.weight f4 [128]
000000 00 00 80 3f 00 00 80 3f 00 00 80 3f 00 00 80 3f
       1.0 1.0 1.0 1.0
000010 00 00 80 3f 00 00 80 3f 00 00 80 3f 00 00 80 3f
       1.0 1.0 1.0 1.0
000020 00 00 80 3f 00 00 80 3f 00 00 80 3f 00 00 80 3f
       1.0 1.0 1.0 1.0
000030 00 00 80 3f 00 00 80 3f 00 00 80 3f 00 00 80 3f
       1.0 1.0 1.0 1.0
000040 00 00 80 3f 00 00 80 3f 00 00 80 3f 00 00 80 3f
       1.0 1.0 1.0 1.0
000050 00 00 80 3f 00 00 80 3f 00 00 80 3f 00 00 80 3f
       1.0 1.0 1.0 1.0
000060 00 00 80 3f 00 00 80 3f 00 00 80 3f 00 00 80 3f
       1.0 1.0 1.0 1.0
000070 00 00 80 3f 00 00 80 3f 00 00 80 3f 00 00 80 3f
       1.0 1.0 1.0 1.0
000080 00 00 80 3f 00 00 80 3f 00 00 80 3f 00 00 80 3f
       1.0 1.0 1.0 1.0
000090 00 00 80 3f 00 00 80 3f 00 00 80 3f 00 00 80 3f
       1.0 1.0 1.0 1.0
0000a0 00 00 80 3f 00 00 80 3f 00 00 80 3f 00 00 80 3f
       1.0 1.0 1.0 1.0
0000b0 00 00 80 3f 00 00 80 3f 00 00 80 3f 00 00 80 3f
       1.0 1.0 1.0 1.0
0000c0 00 00 80 3f 00 00 80 3f 00 00 80 3f 00 00 80 3f
       1.0 1.0 1.0 1.0
0000d0 00 00 80 3f 00 00 80 3f 00 00 80 3f 00 00 80 3f
       1.0 1.0 1.0 1.0
0000e0 00 00 80 3f 00 00 80 3f 00 00 80 3f 00 00 80 3f
       1.0 1.0 1.0 1.0
0000f0 00 00 80 3f 00 00 80 3f 00 00 80 3f 00 00 80 3f
       1.0 1.0 1.0 1.0
000100 00 00 80 3f 00 00 80 3f 00 00 80 3f 00 00 80 3f
       1.0 1.0 1.0 1.0
000110 00 00 80 3f 00 00 80 3f 00 00 80 3f 00 00 80 3f
       1.0 1.0 1.0 1.0
000120 00 00 80 3f 00 00 80 3f 00 00 80 3f 00 00 80 3f
       1.0 1.0 1.0 1.0
000130 00 00 80 3f 00 00 80 3f 00 00 80 3f 00 00 80 3f
       1.0 1.0 1.0 1.0
000140 00 00 80 3f 00 00 80 3f 00 00 80 3f 00 00 80 3f
       1.0 1.0 1.0 1.0
000150 00 00 80 3f 00 00 80 3f 00 00 80 3f 00 00 80 3f
       1.0 1.0 1.0 1.0
000160 00 00 80 3f 00 00 80 3f 00 00 80 3f 00 00 80 3f
       1.0 1.0 1.0 1.0
000170 00 00 80 3f 00 00 80 3f 00 00 80 3f 00 00 80 3f
       1.0 1.0 1.0 1.0
000180 00 00 80 3f 00 00 80 3f 00 00 80 3f 00 00 80 3f
       1.0 1.0 1.0 1.0
000190 00 00 80 3f 00 00 80 3f 00 00 80 3f 00 00 80 3f
       1.0 1.0 1.0 1.0
0001a0 00 00 80 3f 00 00 80 3f 00 00 80 3f 00 00 80 3f
       1.0 1.0 1.0 1.0
0001b0 00 00 80 3f 00 00 80 3f 00 00 80 3f 00 00 80 3f
       1.0 1.0 1.0 1.0
0001c0 00 00 80 3f 00 00 80 3f 00 00 80 3f 00 00 80 3f
       1.0 1.0 1.0 1.0
0001d0 00 00 80 3f 00 00 80 3f 00 00 80 3f 00 00 80 3f
       1.0 1.0 1.0 1.0
0001e0 00 00 80 3f 00 00 80 3f 00 00 80 3f 00 00 80 3f
       1.0 1.0 1.0 1.0
0001f0 00 00 80 3f 00 00 80 3f 00 00 80 3f 00 00 80 3f
       1.0 1.0 1.0 1.0

bn.bias f4 [128]
000000 00 00 00 00 00 00 00 00 00 00 00 00 00 00 00 00
       0.0 0.0 0.0 0.0
000010 00 00 00 00 00 00 00 00 00 00 00 00 00 00 00 00
       0.0 0.0 0.0 0.0
000020 00 00 00 00 00 00 00 00 00 00 00 00 00 00 00 00
       0.0 0.0 0.0 0.0
000030 00 00 00 00 00 00 00 00 00 00 00 00 00 00 00 00
       0.0 0.0 0.0 0.0
000040 00 00 00 00 00 00 00 00 00 00 00 00 00 00 00 00
       0.0 0.0 0.0 0.0
000050 00 00 00 00 00 00 00 00 00 00 00 00 00 00 00 00
       0.0 0.0 0.0 0.0
000060 00 00 00 00 00 00 00 00 00 00 00 00 00 00 00 00
       0.0 0.0 0.0 0.0
000070 00 00 00 00 00 00 00 00 00 00 00 00 00 00 00 00
       0.0 0.0 0.0 0.0
000080 00 00 00 00 00 00 00 00 00 00 00 00 00 00 00 00
       0.0 0.0 0.0 0.0
000090 00 00 00 00 00 00 00 00 00 00 00 00 00 00 00 00
       0.0 0.0 0.0 0.0
0000a0 00 00 00 00 00 00 00 00 00 00 00 00 00 00 00 00
       0.0 0.0 0.0 0.0
0000b0 00 00 00 00 00 00 00 00 00 00 00 00 00 00 00 00
       0.0 0.0 0.0 0.0
0000c0 00 00 00 00 00 00 00 00 00 00 00 00 00 00 00 00
       0.0 0.0 0.0 0.0
0000d0 00 00 00 00 00 00 00 00 00 00 00 00 00 00 00 00
       0.0 0.0 0.0 0.0
0000e0 00 00 00 00 00 00 00 00 00 00 00 00 00 00 00 00
       0.0 0.0 0.0 0.0
0000f0 00 00 00 00 00 00 00 00 00 00 00 00 00 00 00 00
       0.0 0.0 0.0 0.0
000100 00 00 00 00 00 00 00 00 00 00 00 00 00 00 00 00
       0.0 0.0 0.0 0.0
000110 00 00 00 00 00 00 00 00 00 00 00 00 00 00 00 00
       0.0 0.0 0.0 0.0
000120 00 00 00 00 00 00 00 00 00 00 00 00 00 00 00 00
       0.0 0.0 0.0 0.0
000130 00 00 00 00 00 00 00 00 00 00 00 00 00 00 00 00
       0.0 0.0 0.0 0.0
000140 00 00 00 00 00 00 00 00 00 00 00 00 00 00 00 00
       0.0 0.0 0.0 0.0
000150 00 00 00 00 00 00 00 00 00 00 00 00 00 00 00 00
       0.0 0.0 0.0 0.0
000160 00 00 00 00 00 00 00 00 00 00 00 00 00 00 00 00
       0.0 0.0 0.0 0.0
000170 00 00 00 00 00 00 00 00 00 00 00 00 00 00 00 00
       0.0 0.0 0.0 0.0
000180 00 00 00 00 00 00 00 00 00 00 00 00 00 00 00 00
       0.0 0.0 0.0 0.0
000190 00 00 00 00 00 00 00 00 00 00 00 00 00 00 00 00
       0.0 0.0 0.0 0.0
0001a0 00 00 00 00 00 00 00 00 00 00 00 00 00 00 00 00
       0.0 0.0 0.0 0.0
0001b0 00 00 00 00 00 00 00 00 00 00 00 00 00 00 00 00
       0.0 0.0 0.0 0.0
0001c0 00 00 00 00 00 00 00 00 00 00 00 00 00 00 00 00
       0.0 0.0 0.0 0.0
0001d0 00 00 00 00 00 00 00 00 00 00 00 00 00 00 00 00
       0.0 0.0 0.0 0.0
0001e0 00 00 00 00 00 00 00 00 00 00 00 00 00 00 00 00
       0.0 0.0 0.0 0.0
0001f0 00 00 00 00 00 00 00 00 00 00 00 00 00 00 00 00
       0.0 0.0 0.0 0.0

bn.running_mean f4 [128]
000000 00 00 00 00 00 00 00 00 00 00 00 00 00 00 00 00
       0.0 0.0 0.0 0.0
000010 00 00 00 00 00 00 00 00 00 00 00 00 00 00 00 00
       0.0 0.0 0.0 0.0
000020 00 00 00 00 00 00 00 00 00 00 00 00 00 00 00 00
       0.0 0.0 0.0 0.0
000030 00 00 00 00 00 00 00 00 00 00 00 00 00 00 00 00
       0.0 0.0 0.0 0.0
000040 00 00 00 00 00 00 00 00 00 00 00 00 00 00 00 00
       0.0 0.0 0.0 0.0
000050 00 00 00 00 00 00 00 00 00 00 00 00 00 00 00 00
       0.0 0.0 0.0 0.0
000060 00 00 00 00 00 00 00 00 00 00 00 00 00 00 00 00
       0.0 0.0 0.0 0.0
000070 00 00 00 00 00 00 00 00 00 00 00 00 00 00 00 00
       0.0 0.0 0.0 0.0
000080 00 00 00 00 00 00 00 00 00 00 00 00 00 00 00 00
       0.0 0.0 0.0 0.0
000090 00 00 00 00 00 00 00 00 00 00 00 00 00 00 00 00
       0.0 0.0 0.0 0.0
0000a0 00 00 00 00 00 00 00 00 00 00 00 00 00 00 00 00
       0.0 0.0 0.0 0.0
0000b0 00 00 00 00 00 00 00 00 00 00 00 00 00 00 00 00
       0.0 0.0 0.0 0.0
0000c0 00 00 00 00 00 00 00 00 00 00 00 00 00 00 00 00
       0.0 0.0 0.0 0.0
0000d0 00 00 00 00 00 00 00 00 00 00 00 00 00 00 00 00
       0.0 0.0 0.0 0.0
0000e0 00 00 00 00 00 00 00 00 00 00 00 00 00 00 00 00
       0.0 0.0 0.0 0.0
0000f0 00 00 00 00 00 00 00 00 00 00 00 00 00 00 00 00
       0.0 0.0 0.0 0.0
000100 00 00 00 00 00 00 00 00 00 00 00 00 00 00 00 00
       0.0 0.0 0.0 0.0
000110 00 00 00 00 00 00 00 00 00 00 00 00 00 00 00 00
       0.0 0.0 0.0 0.0
000120 00 00 00 00 00 00 00 00 00 00 00 00 00 00 00 00
       0.0 0.0 0.0 0.0
000130 00 00 00 00 00 00 00 00 00 00 00 00 00 00 00 00
       0.0 0.0 0.0 0.0
000140 00 00 00 00 00 00 00 00 00 00 00 00 00 00 00 00
       0.0 0.0 0.0 0.0
000150 00 00 00 00 00 00 00 00 00 00 00 00 00 00 00 00
       0.0 0.0 0.0 0.0
000160 00 00 00 00 00 00 00 00 00 00 00 00 00 00 00 00
       0.0 0.0 0.0 0.0
000170 00 00 00 00 00 00 00 00 00 00 00 00 00 00 00 00
       0.0 0.0 0.0 0.0
000180 00 00 00 00 00 00 00 00 00 00 00 00 00 00 00 00
       0.0 0.0 0.0 0.0
000190 00 00 00 00 00 00 00 00 00 00 00 00 00 00 00 00
       0.0 0.0 0.0 0.0
0001a0 00 00 00 00 00 00 00 00 00 00 00 00 00 00 00 00
       0.0 0.0 0.0 0.0
0001b0 00 00 00 00 00 00 00 00 00 00 00 00 00 00 00 00
       0.0 0.0 0.0 0.0
0001c0 00 00 00 00 00 00 00 00 00 00 00 00 00 00 00 00
       0.0 0.0 0.0 0.0
0001d0 00 00 00 00 00 00 00 00 00 00 00 00 00 00 00 00
       0.0 0.0 0.0 0.0
0001e0 00 00 00 00 00 00 00 00 00 00 00 00 00 00 00 00
       0.0 0.0 0.0 0.0
0001f0 00 00 00 00 00 00 00 00 00 00 00 00 00 00 00 00
       0.0 0.0 0.0 0.0

bn.running_var f4 [128]
000000 00 00 80 3f 00 00 80 3f 00 00 80 3f 00 00 80 3f
       1.0 1.0 1.0 1.0
000010 00 00 80 3f 00 00 80 3f 00 00 80 3f 00 00 80 3f
       1.0 1.0 1.0 1.0
000020 00 00 80 3f 00 00 80 3f 00 00 80 3f 00 00 80 3f
       1.0 1.0 1.0 1.0
000030 00 00 80 3f 00 00 80 3f 00 00 80 3f 00 00 80 3f
       1.0 1.0 1.0 1.0
000040 00 00 80 3f 00 00 80 3f 00 00 80 3f 00 00 80 3f
       1.0 1.0 1.0 1.0
000050 00 00 80 3f 00 00 80 3f 00 00 80 3f 00 00 80 3f
       1.0 1.0 1.0 1.0
000060 00 00 80 3f 00 00 80 3f 00 00 80 3f 00 00 80 3f
       1.0 1.0 1.0 1.0
000070 00 00 80 3f 00 00 80 3f 00 00 80 3f 00 00 80 3f
       1.0 1.0 1.0 1.0
000080 00 00 80 3f 00 00 80 3f 00 00 80 3f 00 00 80 3f
       1.0 1.0 1.0 1.0
000090 00 00 80 3f 00 00 80 3f 00 00 80 3f 00 00 80 3f
       1.0 1.0 1.0 1.0
0000a0 00 00 80 3f 00 00 80 3f 00 00 80 3f 00 00 80 3f
       1.0 1.0 1.0 1.0
0000b0 00 00 80 3f 00 00 80 3f 00 00 80 3f 00 00 80 3f
       1.0 1.0 1.0 1.0
0000c0 00 00 80 3f 00 00 80 3f 00 00 80 3f 00 00 80 3f
       1.0 1.0 1.0 1.0
0000d0 00 00 80 3f 00 00 80 3f 00 00 80 3f 00 00 80 3f
       1.0 1.0 1.0 1.0
0000e0 00 00 80 3f 00 00 80 3f 00 00 80 3f 00 00 80 3f
       1.0 1.0 1.0 1.0
0000f0 00 00 80 3f 00 00 80 3f 00 00 80 3f 00 00 80 3f
       1.0 1.0 1.0 1.0
000100 00 00 80 3f 00 00 80 3f 00 00 80 3f 00 00 80 3f
       1.0 1.0 1.0 1.0
000110 00 00 80 3f 00 00 80 3f 00 00 80 3f 00 00 80 3f
       1.0 1.0 1.0 1.0
000120 00 00 80 3f 00 00 80 3f 00 00 80 3f 00 00 80 3f
       1.0 1.0 1.0 1.0
000130 00 00 80 3f 00 00 80 3f 00 00 80 3f 00 00 80 3f
       1.0 1.0 1.0 1.0
000140 00 00 80 3f 00 00 80 3f 00 00 80 3f 00 00 80 3f
       1.0 1.0 1.0 1.0
000150 00 00 80 3f 00 00 80 3f 00 00 80 3f 00 00 80 3f
       1.0 1.0 1.0 1.0
000160 00 00 80 3f 00 00 80 3f 00 00 80 3f 00 00 80 3f
       1.0 1.0 1.0 1.0
000170 00 00 80 3f 00 00 80 3f 00 00 80 3f 00 00 80 3f
       1.0 1.0 1.0 1.0
000180 00 00 80 3f 00 00 80 3f 00 00 80 3f 00 00 80 3f
       1.0 1.0 1.0 1.0
000190 00 00 80 3f 00 00 80 3f 00 00 80 3f 00 00 80 3f
       1.0 1.0 1.0 1.0
0001a0 00 00 80 3f 00 00 80 3f 00 00 80 3f 00 00 80 3f
       1.0 1.0 1.0 1.0
0001b0 00 00 80 3f 00 00 80 3f 00 00 80 3f 00 00 80 3f
       1.0 1.0 1.0 1.0
0001c0 00 00 80 3f 00 00 80 3f 00 00 80 3f 00 00 80 3f
       1.0 1.0 1.0 1.0
0001d0 00 00 80 3f 00 00 80 3f 00 00 80 3f 00 00 80 3f
       1.0 1.0 1.0 1.0
0001e0 00 00 80 3f 00 00 80 3f 00 00 80 3f 00 00 80 3f
       1.0 1.0 1.0 1.0
0001f0 00 00 80 3f 00 00 80 3f 00 00 80 3f 00 00 80 3f
       1.0 1.0 1.0 1.0
