model_dir/checkpoint_critic_0.pth (torch_old, 84176 bytes, 9 tensors)

fcs1.weight f4 [128, 24]
000000 30 d2 c2 bc c7 b8 52 3d 51 bf 22 ba d6 d8 0f 3d
       -0.023781866 0.05144575 -0.0006208318 0.0351189
000010 ff 07 d3 bd f4 87 6d bd 70 9f cd ba 87 26 01 3d
       -0.103042595 -0.057990983 -0.0015687775 0.031530883
000020 ac 5e c9 bc dd f6 25 3e da 8d 05 bd 0e 1f 70 3d
       -0.024581276 0.16207452 -0.032605983 0.058623366
000030 9d c7 eb bd d7 f7 da bc 49 f0 02 3d 80 f3 80 bd
       -0.115126826 -0.026729507 0.031967435 -0.06296444
000040 8e 02 bb 3d 75 90 20 3e e2 b2 66 3d 37 4f 97 3d
       0.09131347 0.15680106 0.05632294 0.07388156
000050 b7 95 66 bd 50 0f aa 3d ef e1 9d bd d3 99 0f 3e
       -0.056295123 0.08303702 -0.07709109 0.14023523
000060 34 9a cc 3d 4e 40 ab 3d 54 d4 03 3d f4 bb 44 3d
       0.099903494 0.083618745 0.032184914 0.04803081
000070 80 03 f4 bd 5e 78 4d 3c e5 3a 1d 3c 9d 84 1f bc
       -0.1191473 0.012540905 0.009596561 -0.009736207
000080 70 7e d7 3d 88 0a 42 3e 1b 00 b4 3c ff a3 b1 3d
       0.10522163 0.1894933 0.021972707 0.08673858
000090 48 b2 b7 bd bd 7b b1 bd 41 77 5e 3c c1 9b 18 3d
       -0.08969551 -0.08666179 0.013578237 0.037257914
0000a0 d6 a6 f7 3d a4 46 c2 3d 78 06 f1 3c 21 f8 24 bd
       0.12092368 0.0948613 0.02942203 -0.040275697
0000b0 fe 5e 68 be b4 e9 f1 bd 0a a9 2e bc 51 eb d8 bc
       -0.22692487 -0.118121535 -0.010660419 -0.026479395
0000c0 ec 99 76 3c 41 ff e8 3c 5f 46 9d 3c 95 4c 45 3d
       0.015051346 0.028442027 0.019198595 0.048168737
0000d0 48 7f 98 3c 22 d1 10 3e e4 ee 58 bc b1 69 1c 3d
       0.01861538 0.14142278 -0.01324055 0.038186733
0000e0 bd 01 ee 3c 74 08 e0 bd 93 7b 92 3c 62 b6 a9 3d
       0.029053563 -0.10939112 0.01788119 0.0828674
0000f0 ec 89 bb 3d d2 0d f3 3b 8a 12 02 bd 18 05 bd 3d
       0.09157166 0.007417419 -0.03175596 0.09229487
000100 08 58 86 bc 25 c9 0e be af cb 2e 3c de 2c 49 bd
       -0.016399398 -0.13943918 0.010668679 -0.049115054
000110 a1 c0 b7 bd 40 83 ed bd c3 7a 9b bb a6 10 93 bd
       -0.08972288 -0.115972996 -0.004744859 -0.0718091
000120 54 56 67 bd 04 f3 2e 3e 09 da 12 3d 0a 23 15 bd
       -0.056478813 0.1708489 0.035852466 -0.03641037
000130 b3 9b aa 3c f1 f2 68 bd d6 68 5a bd 1a 27 84 3d
       0.020826196 -0.056872312 -0.053322636 0.064527705
000140 6f a7 b7 3d 06 e2 3a 3e 63 37 a8 bc 99 8d 38 3d
       0.08967482 0.18250284 -0.020534223 0.045056913
000150 63 07 d3 bc 8c 5b 79 be 6e b9 46 3b 5e ac 83 bc
       -0.025760358 -0.24351329 0.0030322927 -0.016073402
000160 70 dc cc 3d 1a a9 5a 3d 85 c9 69 3d 9c 90 23 3e
       0.100029826 0.053383924 0.05707695 0.15973133
000170 55 61 3f bd 89 96 d0 be a1 8d 4d 3d d2 cc c7 3d
       -0.046723682 -0.4073985 0.050183896 0.09755863
000180 45 2f 52 3d 86 eb ef bd d1 79 f5 bc c9 c1 5e bd
       0.05131461 -0.117148444 -0.029965313 -0.054384027
000190 18 f5 b0 3b 11 0a 3c bd 1d 00 60 bc 5d d1 b9 3d
       0.005400311 -0.045908038 -0.013671902 0.09073136
0001a0 e5 ae 69 3d 70 40 ae bd 90 2d 96 3c a0 f6 3c bd
       0.057051558 -0.08508384 0.018332273 -0.046133637
0001b0 e6 45 41 3d d7 c5 e8 3c 30 f7 34 bd 7a 3c d1 bd
       0.0471858 0.02841465 -0.04418105 -0.10216613
0001c0 5b bc d5 3d 3e 5b db 3d b6 ad 74 bd de 83 12 3c
       0.104363166 0.107107624 -0.059735976 0.008942572
0001d0 59 6a 2f 3e af 6b 2d be 05 dd 13 bd bd 50 40 3d
       0.17130412 -0.1693561 -0.036099453 0.046951998
0001e0 24 77 89 3c 24 84 be be 05 20 b4 3c 1c 60 c6 3b
       0.016780443 -0.3721019 0.021987924 0.0060539376
0001f0 4a ce c8 bd c6 cf ba bc bc 4b 1d bc 5b b4 aa 3d
       -0.098049715 -0.022804152 -0.009600576 0.08335181
000200 9d 03 93 3d df 57 66 be 32 1d ed bc 68 0d b1 3d
       0.071784236 -0.22494458 -0.028944585 0.08645135
000210 98 03 31 bd ee 7e 5c be 96 e5 41 3d 46 96 2d 3d
       -0.043216318 -0.21532795 0.04733809 0.04237964
000220 9b ce a8 3d f4 c0 c1 be bf 48 9f bd e5 0f 2e bd
       0.08242532 -0.37842524 -0.07777547 -0.042495627
000230 0e e8 79 bd 00 5b a2 be a1 d1 7c 3c 6d 1e af bd
       -0.06101232 -0.31710052 0.015430839 -0.08550725
000240 66 97 3b bd b4 e6 36 be 4d 5f 1e 3c 21 89 25 bb
       -0.04579868 -0.17861444 0.009666276 -0.0025258737
000250 90 50 a6 bd 3c 46 05 be a0 c4 09 bc 63 c6 03 3d
       -0.08120835 -0.13015074 -0.008408695 0.03217162
000260 fb 4b 33 bc f2 78 8b be d2 8b 65 bc 32 8a 84 bb
       -0.010943408 -0.2724071 -0.014010387 -0.0040447945
000270 29 75 a6 bd 77 c8 2f be 8d b5 3a 3c 0c 1d 1a 3c
       -0.08127815 -0.17166315 0.011395824 0.009406339
000280 40 c5 10 bd 5d 52 93 be 78 f6 f3 bc c5 de 7f 3c
       -0.035344362 -0.28773776 -0.029780611 0.015617077
000290 25 9d 9a bd 7b a8 b5 be fe 58 d5 3c d0 4e 96 3d
       -0.07549504 -0.35480103 0.026043411 0.07339251
0002a0 1b 9f 97 3c b2 a8 3e 3d 0b f2 73 3c a3 c2 39 bd
       0.018508485 0.0465476 0.0148892505 -0.045351636
0002b0 8c f2 a5 3d 98 c3 12 3e 6f e4 d3 bb 58 42 fa bc
       0.08102903 0.14332426 -0.0064664404 -0.030549213
0002c0 2d 3b d8 3a 68 42 62 3d b9 67 2b bd 5e 75 98 3c
       0.0016497128 0.05523911 -0.041846965 0.018610653
0002d0 ca 40 c2 3c 9b 04 2d 3d d7 3b 28 3c 43 ce e6 bc
       0.023712534 0.04224072 0.010268173 -0.028174525
0002e0 5f b2 b0 bc 48 e6 8f 3d b0 72 87 bd b7 34 a5 3d
       -0.021569429 0.070263445 -0.06613672 0.08066695
0002f0 43 9a 36 be f3 3c 1b be 57 94 1b 3d 2b 87 ad 3d
       -0.17832284 -0.15159969 0.037983265 0.08473047
000300 ba 48 01 bd 74 7d 88 3d aa 0d a8 3b f8 63 4a bd
       -0.031563498 0.06664553 0.005128582 -0.049411744
000310 11 c2 49 bc fb 3b 33 be 6c bf 87 bb 57 44 55 bd
       -0.012314335 -0.1750335 -0.0041426923 -0.052067127
000320 ba 48 0f bd 06 98 f0 3d 47 86 21 3d 80 7d f7 bd
       -0.034981467 0.11747746 0.039434697 -0.12084484
000330 c1 a6 1a 3e 55 b6 2f be 1f 2d 47 bd 91 36 de 3c
       0.15102674 -0.17159398 -0.048627015 0.027125629
000340 cd 5e da bd ac 69 99 bc 76 48 e4 3c c8 da 54 3d
       -0.10662613 -0.018727146 0.027866583 0.05196646
000350 72 8a f4 bc e4 b4 08 be 4b 9e ad 3b e0 a0 a8 3d
       -0.029851172 -0.13350254 0.005298411 0.082338095
000360 87 3d 9f 3d b3 d8 8c bd 53 4e ae 3c f4 b5 87 bd
       0.07775407 -0.068772696 0.021277582 -0.06626502
000370 80 60 20 be bd 9c 34 be 2e c5 d2 bc 3c f8 40 bd
       -0.15661812 -0.17637916 -0.025728788 -0.047111735
000380 e6 07 99 bc dd 61 f4 3a 12 2e ae bd 30 9c cc bd
       -0.018680524 0.0018644888 -0.08504881 -0.09990728
000390 88 7a a0 3c 96 84 91 3d 9d 11 9f 3d 7f c0 fd 3c
       0.019589677 0.07105367 0.07767031 0.030975578
0003a0 8b 60 a7 bd eb 9d 06 be d7 33 1b 3b 47 45 1d bd
       -0.08172711 -0.13146178 0.0023682022 -0.038396146
0003b0 d3 ee 14 3d 15 78 da 3d 5a 98 03 3b 3f 7f 9c 3d
       0.036360573 0.10667435 0.0020079822 0.07641458
0003c0 36 5c 59 3d e1 0f e6 bd 36 f8 93 3d d0 0c db 3c
       0.053066455 -0.112334974 0.07225077 0.026739508
0003d0 f6 73 70 3e ef e3 03 3e a2 62 9f bd 9c 7c fd bc
       0.23481736 0.12879919 -0.077824846 -0.030943207
0003e0 75 78 65 3d 3a 81 5e b9 25 ae 3c bd 1d 7f 27 bc
       0.05602308 -0.0002121971 -0.046064515 -0.010223177
0003f0 55 8f 73 bd 56 57 2f bd b8 8c 3e 3d a4 85 79 3d
       -0.059462864 -0.0428079 0.04652092 0.060918465

fcs1.bias f4 [128]
000000 67 11 25 be 29 a2 43 3a 62 1d a8 bd fe 5e e2 3b
       -0.1611992 0.00074628234 -0.08208729 0.0069082966
000010 2d c6 84 bd 5e 34 87 bc 08 1a d1 3d da 7a ff 3d
       -0.064831115 -0.016504463 0.10210043 0.12474604
000020 57 d6 64 3e d7 84 80 bc 73 13 bb bc 38 54 69 be
       0.22347389 -0.015688343 -0.022836423 -0.22786033
000030 09 1f 65 be 94 fd 51 3e 7d 4c 9d bd 48 17 66 3d
       -0.2237512 0.20506889 -0.076806046 0.056174546
000040 2f d6 a6 ba 20 e3 27 3d 4a 66 0a bd cc 48 a9 3d
       -0.0012728627 0.040988088 -0.033788957 0.08265838
000050 97 e7 5b 3d 73 fc c7 3d 29 a7 12 3d 37 8d 11 be
       0.05368766 0.09764948 0.035803948 -0.14214025
000060 9e 81 1c 3e 31 06 24 3e 56 ee e1 bb 8c be 48 bc
       0.1528382 0.16017987 -0.006894867 -0.012252461
000070 29 3e d6 3c b9 be 37 be 93 39 ab bc d3 1e c3 bd
       0.026152687 -0.17943849 -0.020901477 -0.09527364
000080 f5 c0 31 be 2b f1 b8 3d a7 8f 96 bd 99 b5 0d 3e
       -0.17358764 0.09030374 -0.07351618 0.13838805
000090 2a d4 30 3e db 37 6b 3e e7 13 8b 3e 85 37 83 3c
       0.17268434 0.22970526 0.27163622 0.016017685
0000a0 83 a0 3d 3d 26 0b fc 3d 4d 4a b8 bd ba d4 5a 3e
       0.046295654 0.12306814 -0.08998547 0.21370211
0000b0 e9 3a 9a 3d cf db a4 3d d6 9f e4 bd 06 55 00 3e
       0.075307675 0.08049738 -0.11163299 0.12532434
0000c0 97 09 44 3e b9 d1 9f be 59 f4 98 be 92 88 9a bd
       0.19144283 -0.31214693 -0.29873922 -0.0754558
0000d0 b9 e9 fa 3d 88 6a 8e bd 66 31 41 bd bd c5 eb bd
       0.1225161 -0.06953913 -0.04716625 -0.11512325
0000e0 5d 85 e4 bc 74 20 63 bd cc ab d9 bd 52 f0 6f 3d
       -0.027895624 -0.05545087 -0.10628471 0.058578797
0000f0 0a d1 5d bd 53 dd 5b bd 52 12 1c 3e d4 30 76 3d
       -0.054154433 -0.053677868 0.15241364 0.06010516
000100 b2 16 a8 3d a1 d1 7c be e2 43 c8 3d 19 19 11 3c
       0.08207454 -0.24689342 0.097785726 0.008856081
000110 f5 f7 f6 3c 83 3b 80 3d a5 6b 03 bd fd 7f 9b bd
       0.030147532 0.06261351 -0.03208508 -0.07592771
000120 95 37 b6 3d 73 5e 3e 3e f1 f3 4f be 8a b2 9b bd
       0.0889732 0.18590717 -0.203079 -0.07602413
000130 02 92 e2 3d 61 1e a8 bd fa 99 5f bd bb f6 1b 3e
       0.11063005 -0.08208919 -0.054590203 0.15230839
000140 a1 71 06 bd f4 2e 27 be 0f ff e6 bd f2 1c c0 bd
       -0.03282321 -0.16326505 -0.11279117 -0.09380521
000150 56 e3 ff 3d 68 fa 25 be 79 6a 20 be 4e 59 e1 3c
       0.12494533 -0.16208804 -0.15665616 0.027508404
000160 26 17 63 be 10 e7 81 3d c9 4c a7 3d b6 a0 61 be
       -0.22176799 0.063429 0.081689425 -0.22033963
000170 75 0c 24 3e f3 86 2a 3e 58 cd 31 be 49 4b 74 3d
       0.16020377 0.16653042 -0.17363489 0.05964211
000180 11 8c 03 bc 35 2e c4 bd e3 cd 25 be 89 6c 1f bd
       -0.008029 -0.09579126 -0.16191821 -0.038921867
000190 cd 4e 1a be 26 4d c6 3d 55 a7 88 3e dc bb d8 bd
       -0.15069123 0.09682684 0.26690164 -0.10582706
0001a0 d9 4a e1 bd ff f4 d3 3d 8f 02 7a 3d 9c f2 17 bd
       -0.11000604 0.10349464 0.061037596 -0.037096605
0001b0 7b 87 89 3c cb e9 29 be c0 9e 0b 3e b6 05 d5 3d
       0.016788235 -0.16593091 0.13634777 0.1040148
0001c0 c0 c5 37 3e a4 27 48 3d 56 67 d9 3d 0e eb 15 bb
       0.1794653 0.04886593 0.10615413 -0.00228757
0001d0 99 46 c3 bd fd 74 ae bd 26 dc 9c 3d 53 24 d2 3b
       -0.0953495 -0.085184075 0.076591775 0.0064130216
0001e0 17 12 99 be ee 09 0b be 27 c6 ba 3d e5 48 0e bd
       -0.29896614 -0.13578007 0.09119826 -0.034737486
0001f0 50 f5 28 bd b8 c1 14 be a8 24 e2 bb 6a 73 39 bd
       -0.041249573 -0.14527023 -0.0069013424 -0.045276083

fc2.weight f4 [128, 130]
000000 62 2c 06 3d 50 93 82 3d 6b 6c 59 3d e3 26 d5 bd
       0.03275717 0.06375754 0.05308191 -0.10407808
000010 ad 0f 98 3d 5a f6 84 3c f1 ec 3d be c6 32 b7 3d
       0.07424865 0.01623075 -0.18547417 0.08945231
000020 99 37 83 bd 6b 71 a8 bd 8d 7a 83 3d e5 f8 22 3d
       -0.06407089 -0.08224758 0.06419859 0.039788146
000030 7e d8 fe 3c ef ff ee bd 7c b7 9d be 2e ab 97 3c
       0.03110909 -0.11669909 -0.3080405 0.018514242
000040 6e a9 9a 3c 06 d7 f1 bc 88 9e ce 3c 1b 36 e8 bc
       0.018879618 -0.029521476 0.025222078 -0.028346112
000050 c2 db e1 bd 6d 04 c4 bc ba d2 d7 bd 7b fe 00 be
       -0.110282436 -0.023927892 -0.1053824 -0.12597077
000060 c1 60 ba 3b 3c 6d b1 3d ec 11 36 be 51 b6 d6 be
       0.0056878035 0.08663413 -0.17780274 -0.4193597
000070 47 90 9f bd 0a 84 7f bb 79 04 b4 bd c6 d9 5c 3c
       -0.077911906 -0.0038988614 -0.087899156 0.013479656
000080 40 28 e3 bc 80 e9 31 bd 46 97 cc bd d1 44 ee bd
       -0.027729154 -0.043435574 -0.099897906 -0.116342194
000090 1e 6f 1b be 80 c3 e4 bd 44 5d d4 bd f1 f9 16 3d
       -0.15179107 -0.11170101 -0.103693515 0.036859456
0000a0 42 e2 52 3b b8 cf c9 3c e3 9f 72 bd fa a4 0f bd
       0.0032178317 0.02463518 -0.05923451 -0.035069443
0000b0 82 ab e6 bd 59 58 70 bd 7d a7 31 bd e0 39 fb 3d
       -0.11263181 -0.058678005 -0.04337262 0.12266898
0000c0 26 e1 b4 bb 4b a3 0c 3d a2 7a 3e 3d ce 53 c6 3d
       -0.005520004 0.034335416 0.04650367 0.09683953
0000d0 cc e7 56 3d 10 55 30 3d 17 ca 8f bc aa f4 35 3d
       0.052467152 0.043049872 -0.017552419 0.044422783
0000e0 e5 ab ec 3d 67 4a 48 be 83 d1 05 be fb 81 d5 bc
       0.11556224 -0.19559632 -0.13068204 -0.026062956
0000f0 9d aa c7 bd 6d 55 dd 3d f7 34 5a bc 35 35 ad bd
       -0.09749339 0.10807309 -0.013318292 -0.08457414
000100 64 10 44 3c 4f 2d 18 bd 74 e2 9d ba 6e b3 a1 3d
       0.011966798 -0.037152585 -0.0012045638 0.078955516
000110 bc 11 b4 bd c7 f0 ec 3b cc 35 ad bb 94 c7 d9 bc
       -0.08792445 0.0072308513 -0.005285954 -0.026584424
000120 58 9d b6 3d 34 11 09 3c de 8d 24 bd 10 61 65 3d
       0.0891673 0.008365918 -0.040174358 0.05600077
000130 83 29 98 3d b0 14 ee bd 6a 40 64 bd 7d 4d a7 bd
       0.07429793 -0.116250396 -0.055725493 -0.081690766
000140 7d 59 d5 3b 46 25 21 3d 2d c2 18 bd d1 99 bf bd
       0.006510912 0.039342187 -0.037294555 -0.0935551
000150 4f 80 51 bc b3 f4 22 3e 7d c8 a7 bb 06 f7 2b be
       -0.012786939 0.15913658 -0.0051203356 -0.1679345
000160 83 93 6e bc a4 00 83 bd 49 71 f2 bd 47 e5 57 be
       -0.014561537 -0.063966066 -0.11838014 -0.21083556
000170 85 df bf 3a 63 7f 60 be 5a 29 54 3d 04 a9 5d bd
       0.0014638758 -0.21923594 0.05179725 -0.054116264
000180 ec cb 98 bd 4b 07 28 be f7 50 e0 3d 91 0a a1 3d
       -0.0746077 -0.16409032 0.10952943 0.078633435
000190 cf 58 97 be e9 28 84 bc 8c f5 c1 3d b1 2f 60 3a
       -0.29559943 -0.016132789 0.094706625 0.00085520284
0001a0 9a 47 83 3b 7c 12 89 be 98 53 2e be 6d cc 16 3d
       0.0040063383 -0.26771915 -0.17024076 0.03681605
0001b0 8b 86 0e 3d cd 6c a1 3d 8e f0 12 3e d4 13 fb 3c
       0.03479628 0.0788208 0.14349577 0.030649103
0001c0 7e 0a 1c bd 39 44 f5 bd 16 90 f0 bc 79 5b 87 bd
       -0.038095944 -0.11975903 -0.02936558 -0.06609244
0001d0 ff 7e df 3c 51 20 41 bd a0 8e 73 bb fa 62 a6 3d
       0.027282236 -0.04714996 -0.0037163869 0.08124347
0001e0 3c 9e 0f be 85 96 42 bd bd 05 4f bd cf 0e b4 3d
       -0.14025205 -0.047506828 -0.05054258 0.08791887
0001f0 83 2f 09 3d e1 7e 17 bb 70 50 69 be 65 18 08 3e
       0.033492576 -0.0023116397 -0.2278459 0.13290556
000200 3b 49 90 be 7c 53 97 3b 75 23 ef 3c 79 1a 20 bc
       -0.2818087 0.0046181064 0.029191712 -0.009771937
000210 51 54 51 be fa b6 25 3d f5 a0 0c 3b bf 5f 56 3d
       -0.2044232 0.040457703 0.0021458243 0.052337404
000220 31 c1 37 3c 2c dd a6 bd a1 11 14 be fb dd 4a bd
       0.011215494 -0.08147654 -0.1445985 -0.049528103
000230 29 54 28 bd ce c7 60 3c 61 30 9b bc 7a 9e 8f 3d
       -0.041095886 0.013719512 -0.018943967 0.07012649
000240 88 0d 18 bd 49 f6 b8 bd c3 d2 fa bd 49 f2 c1 3a
       -0.03712228 -0.0903135 -0.12247231 0.0014796938
000250 c7 df 7b bd 43 82 a8 3d 75 cb 79 bd 11 00 d3 bd
       -0.061492708 0.082279705 -0.060985047 -0.10302747
000260 42 6d 7c 3d 6e d0 b9 bb 56 96 a8 3c a7 65 16 3c
       0.061627634 -0.0056705987 0.020579498 0.009179509
000270 d9 28 ba 3a 13 5e ee 3c fc ba 0a be 74 b8 47 bd
       0.0014202847 0.029097592 -0.13547891 -0.048759893
000280 02 ca a4 bc 85 9c 8d bc 97 b4 e4 bd 87 ec 41 3d
       -0.020115856 -0.017286548 -0.11167257 0.04734471
000290 c0 a8 4f bd 16 bc bb bd 87 8b 03 bd e7 45 02 3d
       -0.050698042 -0.09166734 -0.032115486 0.031804945
0002a0 4a 31 50 bd 06 4c ff 3c 64 06 dc ba 54 54 f0 bb
       -0.050828256 0.03116418 -0.0016786573 -0.0073342714
0002b0 81 28 fc bd d4 71 3b 3d 91 71 b3 bd f4 0f 91 bd
       -0.12312413 0.04576285 -0.087618954 -0.07083121
0002c0 ed ae b0 bc 02 0a 8b bd 07 7d bc bd fa b4 96 bd
       -0.021567786 -0.06789018 -0.092035346 -0.07358737
0002d0 38 5e 58 bc 2f d2 2e bc 40 b0 1a bd ed 48 3c bd
       -0.013206057 -0.010670229 -0.03776574 -0.045967985
0002e0 23 f3 bf bd 65 7f 5b bd 71 83 59 bd f3 f7 38 3c
       -0.093725465 -0.05358829 -0.053103868 0.011289584
0002f0 50 58 94 3a b5 4e e4 bd f3 01 6f bd 3f 1c dd 3b
       0.0011317823 -0.11147825 -0.05835147 0.006747752
000300 bf 91 30 bd bb 5a 5a bb 5d 08 ed bc 0a f4 2b bd
       -0.043107744 -0.003331824 -0.028934652 -0.04198078
000310 b7 30 b6 3b 85 54 4a 3d 9c 5b 20 3d cd 79 a2 bd
       0.0055600065 0.04939701 0.039149866 -0.07933388
000320 fe fc d7 bb f5 5f b0 3b a1 fe e3 bd bf 1c 30 bd
       -0.0065914383 0.0053825327 -0.11132551 -0.042996164
000330 b1 7a b8 3d e3 2a 66 bd 90 c1 45 3b 04 b6 e8 bc
       0.090077765 -0.056193244 0.0030175187 -0.028407104
000340 34 a1 eb 3b 36 62 e3 3c 83 88 92 3c 98 3e 06 bd
       0.007190848 0.027756792 0.01788736 -0.032774538
000350 c6 a9 8a bd 41 c3 df 3c f5 42 bd bd a9 c6 6d 3d
       -0.06770663 0.027314784 -0.09241287 0.058050785
000360 7b e3 8f bd 61 d4 d2 bd 60 62 89 3d ab 01 9c bd
       -0.0702581 -0.10294414 0.06708217 -0.07617506
000370 1e cf 4b bd 35 b3 f1 3c 90 b0 9d bc 16 98 41 3d
       -0.04975807 0.029504398 -0.01924923 0.04726418
000380 67 61 25 bd 87 05 6f bb 9a a4 ad bd ba 58 8c 3d
       -0.040376093 -0.00364718 -0.08478661 0.06852861
000390 b3 76 e7 bd 85 9a 92 3d 20 f3 70 bd 0b 8d d2 bc
       -0.11301937 0.071583785 -0.058825612 -0.02570202
0003a0 82 dd 21 3d a5 45 7a bd ec 81 96 3c d6 02 18 bd
       0.039517887 -0.061101574 0.018372498 -0.03711208
0003b0 cc 98 c2 3d f3 a4 99 bd 27 a8 15 bc 29 b7 78 bd
       0.095018 -0.07502165 -0.009134329 -0.06072155
0003c0 9e 5d dc bc 6d 78 14 bd 0c 81 d4 bc c3 6f 28 bd
       -0.026900109 -0.03624766 -0.02594044 -0.04112221
0003d0 16 7c 93 bc 77 ad cc 3d 32 c9 ad bd 02 98 56 bc
       -0.018003505 0.09994023 -0.084856406 -0.013097765
0003e0 17 60 79 bd 8a 8d 8b bd 8d c8 c7 bc 7e e7 e5 3b
       -0.060882654 -0.06814106 -0.024387622 0.0070161214
0003f0 92 a6 a1 bb e8 1f 38 3d 35 09 80 b7 a8 96 a0 ba
       -0.004933187 0.044952303 -1.5263076e-05 -0.001225193

fc2.bias f4 [128]
000000 53 96 d6 bc 79 7a 4d 3b 08 68 08 be c1 56 96 3d
       -0.026194727 0.0031353517 -0.13320935 0.07340766
000010 59 2f 66 3c 59 e2 d4 3c e0 72 3a 3c 71 c8 94 bd
       0.0140493745 0.025986837 0.011379927 -0.07264794
000020 88 f7 f6 3c 85 85 6b bd 9a 8e 91 bd 3b 64 af 3c
       0.030147329 -0.05750038 -0.07107277 0.021410098
000030 87 15 5b bd 4d 91 73 bc 2e a0 a8 3b 8c bf 23 bd
       -0.053487327 -0.014866185 0.005146048 -0.039977595
000040 b8 16 3f be 68 8c c6 bd 19 42 87 bd 63 af ef bb
       -0.1866101 -0.09694749 -0.06604404 -0.007314609
000050 4f 18 1a be 9f d7 72 bb 34 bd 5b bd e1 f5 8e bb
       -0.15048335 -0.003705479 -0.053647235 -0.004362807
000060 4d 2c c9 3b 78 c5 83 bd 46 0c ae bc 92 a2 79 bd
       0.0061393143 -0.064341486 -0.021246087 -0.060946055
000070 46 6f a0 bd c4 d6 9a bb a6 e9 42 be 2b 6c 3a 3d
       -0.07833724 -0.004725309 -0.19034442 0.045513313
000080 19 a6 b5 bd 6f 45 e3 bd f0 5c 61 3c db 16 be bd
       -0.08869571 -0.11097228 0.013755068 -0.09281703
000090 ff e3 d6 3c e6 6e 8d bc a9 5e a6 bd 63 24 b9 bc
       0.026231764 -0.017264795 -0.08123524 -0.022600358
0000a0 4f 93 44 3a 21 a6 dc bd b0 73 aa bd 57 02 95 bd
       0.00074987573 -0.10773874 -0.08322847 -0.07275837
0000b0 bc e4 d4 bc ff 67 b2 bd 4d 97 9f bd 0e e5 c3 3c
       -0.025987975 -0.08711242 -0.0779253 0.023912933
0000c0 f1 8f bf 3d 62 df 18 be 57 4a 24 3d 65 f0 d3 bb
       0.093536265 -0.14928964 0.04010996 -0.0064678662
0000d0 2a 1e 2a 3e ed 01 ba 3d d2 6c 65 bd 4e 05 a4 3c
       0.16613069 0.090823986 -0.056011982 0.02002206
0000e0 6c 38 05 bc 95 44 b1 3d 7c ff 5d 3d 2d dc 98 bc
       -0.008131128 0.08655659 0.054198727 -0.018659675
0000f0 3e bd cf 3c f7 25 ef 3c f6 70 39 bd 2a 07 21 3d
       0.025358792 0.029192908 -0.045273744 0.039313473
000100 ee aa 49 bc f2 d1 a5 bd 55 39 aa 3d 72 ec a7 bd
       -0.012308819 -0.080966845 0.083117165 -0.08199395
000110 a2 98 0e bd 2d e1 4f bc 78 76 f1 3c 16 82 64 bc
       -0.03481353 -0.012687963 0.029475436 -0.0139470305
000120 fb ed 06 be c5 c3 0c 3d 8c fb 04 be f4 81 56 3d
       -0.1317672 0.034366388 -0.12986583 0.052370027
000130 89 6c d7 3d 9d 7c 59 bd e3 97 30 bd 41 c9 a9 3d
       0.10518748 -0.053097356 -0.0431136 0.08290339
000140 02 e9 d9 3d 46 3f ff bc cb c4 6e bc 15 0f 25 bd
       0.10640146 -0.0311581 -0.014573286 -0.040297586
000150 b6 c7 a1 bd 12 88 d4 bc 8f 74 36 bd 3d ce 7a bd
       -0.0789942 -0.02594379 -0.044544753 -0.06123184
000160 11 d5 96 bd c7 e9 af bc 14 51 8f 3b 11 27 a0 3d
       -0.07364858 -0.021473778 0.004373679 0.07819951
000170 05 66 c2 bd 3b 30 10 3d 50 87 5d 3b 7a 1c 08 be
       -0.09492115 0.035202246 0.0033802576 -0.13292113
000180 e9 53 52 bc 7c 0b a9 bd d8 0d 1f 3d 77 eb 1a bd
       -0.012837389 -0.082541436 0.03883156 -0.037822213
000190 5d 19 98 3b 04 ae fd 3c bf 1b 50 3d b1 c9 ee 3c
       0.0046416954 0.030966766 0.05080771 0.029148908
0001a0 4c dc 06 3e 26 f2 41 bd c8 b3 c4 3d 16 55 b3 bc
       0.13169974 -0.04735007 0.09604603 -0.021891158
0001b0 27 6c de 3c f6 bb f7 bd c6 16 7a 3d 60 f4 30 bd
       0.02715118 -0.120963976 0.061056875 -0.043201804
0001c0 3f 8a 39 3d 18 ff 55 bc 9f e2 c7 bd 24 05 9b 3c
       0.045297857 -0.013061307 -0.097600214 0.01892335
0001d0 08 5c e9 bc f2 1a da bd 17 df 01 be f1 e9 47 bd
       -0.028486267 -0.10649671 -0.12682758 -0.04880709
0001e0 83 3f 77 bd e2 9b 5a bc c8 31 9e bd 7c 88 55 3d
       -0.060363304 -0.013342829 -0.07724339 0.052132115
0001f0 d0 66 45 bd 36 3a c8 bc 94 e3 37 3c dc 03 6f 3d
       -0.048193753 -0.02444182 0.011223692 0.05835329

fc3.weight f4 [1, 128]
000000 f1 8a 33 3d d3 e8 52 be 0a 35 51 bd 3f 58 36 3d
       0.043833677 -0.20596628 -0.051075973 0.04451775
000010 4d 69 f6 b7 9f 93 03 3d fd 24 7e bd eb d4 c6 bd
       -2.937452e-05 0.032123204 -0.062046994 -0.0970858
000020 aa 80 0b 3d 92 2d 11 be 32 94 88 b8 c8 f5 9a 3c
       0.03405825 -0.1417754 -6.512589e-05 0.018916026
000030 60 d0 1e 3d f0 f4 d6 3d ff 56 e2 3d c1 95 e1 3d
       0.03877294 0.10495937 0.110517494 0.110148914
000040 67 35 1e bd 22 35 21 39 e3 28 cf 3c be f9 03 bd
       -0.038625147 0.0001537395 0.025288051 -0.032220595
000050 ac 80 16 3d 7f 41 fd bc 54 65 56 3d 8c 02 17 bb
       0.036743805 -0.03091502 0.052342728 -0.002304229
000060 26 88 45 3a 9e a6 4a 3d d9 8b e1 bd 73 c7 cd bc
       0.00075352413 0.049475305 -0.11013002 -0.025119519
000070 84 8a 16 bd cb 2d 02 bd 59 6e 8f bd e9 b6 03 3e
       -0.036753193 -0.031781953 -0.07003469 0.12862743
000080 9b fd e6 bc 3c 6e 1a bd 72 20 e2 3d 28 bb 0a bc
       -0.0281971 -0.037702784 0.11041345 -0.008467473
000090 3c 9a 77 bb aa 14 98 bd 1a e6 2b bd 4c cb f9 3c
       -0.003778114 -0.07425816 -0.04196749 0.030492447
0000a0 0c 99 ae 3c 32 16 8f 3c 30 7b 72 bb 12 2b 4c bd
       0.021313213 0.017466638 -0.0036999695 -0.049845763
0000b0 56 b4 c6 3d 76 26 fc bc af ef 07 bb 8e 73 07 3d
       0.09702365 -0.030780058 -0.0020742228 0.033069186
0000c0 3f 71 d0 3c 5f b9 4f bd d8 db ca 3d 48 50 91 3d
       0.025444625 -0.050713893 0.09905213 0.070953906
0000d0 7a 6e f0 3c a9 81 55 3d d1 e2 62 3d 50 63 47 3d
       0.029349554 0.052125607 0.05539209 0.048678696
0000e0 4e 98 1f bd 60 16 f5 3d 23 f1 e5 3d bf 92 35 bd
       -0.03896361 0.11967158 0.11227634 -0.0443294
0000f0 e8 e3 3b 3d e3 d0 d3 3c 58 c3 59 3d ed db b0 3d
       0.045871645 0.02585644 0.05316481 0.086356975
000100 7a 83 fd bc 80 7d f4 3c 01 ee a6 3d 70 e4 92 3d
       -0.030946482 0.029845 0.081508644 0.07172477
000110 5f ef 03 bd 36 34 d0 3c 61 66 e1 3c 9c 49 cc 3c
       -0.032210704 0.025415521 0.027514638 0.024937443
000120 f8 53 c4 bd 6b 56 65 3d 6b b5 84 bd d8 bd 9c 3d
       -0.09586328 0.055990618 -0.06479915 0.07653397
000130 42 ac 17 3d 30 5e cb 3c e7 c5 88 bd 98 10 02 bd
       0.037029512 0.024825186 -0.06678372 -0.031754106
000140 a7 56 9f bd 13 a4 f8 bd 55 f4 0b bd d1 52 33 bd
       -0.077801995 -0.1214067 -0.03416856 -0.04378015
000150 bd e5 4f bd eb a1 ee bc 52 73 a1 bd ab da b6 3d
       -0.050756205 -0.029129943 -0.07883324 0.08928426
000160 34 0e ec 3c 6e 92 a9 3d e2 e7 a2 bd 4b 9a 05 3e
       0.028815366 0.08279882 -0.079543844 0.1304714
000170 e3 d8 1a 3e b6 39 5f 3c 3d 3a be 3d 27 51 f2 bc
       0.15121798 0.013624599 0.09288452 -0.029579712
000180 be 76 4b 3c 0c b6 f9 3b 7e de 18 bd ef 71 b6 bc
       0.012418447 0.0076205786 -0.03732156 -0.022271125
000190 88 cc 13 be b8 93 7d 3d e0 4a 6b 3d 5f f0 93 bd
       -0.14433491 0.061908454 0.057444453 -0.072235815
0001a0 8c a3 c8 3c 25 26 b5 3c 8a 76 11 3d c4 77 07 bd
       0.024492048 0.022112915 0.03551344 -0.0330732
0001b0 e1 fd 17 3d a2 3c 66 bd d9 9b 1c 3d c1 60 f2 3c
       0.037107352 -0.056210168 0.038234565 0.029587151
0001c0 10 ec 0f bd 3a 6a ca bd fc 04 77 3d a3 83 58 3d
       -0.035137236 -0.09883542 0.060307488 0.052859914
0001d0 bb 75 06 3d e5 f9 e4 3c 0b 11 bb bd f1 5d 26 3e
       0.03282712 0.02795119 -0.0913411 0.16246773
0001e0 20 58 c5 bd 8e 5a b5 bb 38 82 86 bc 55 c5 b7 bc
       -0.09635949 -0.0055344766 -0.016419515 -0.022432962
0001f0 0f 17 7b bd 7a 00 d9 3a 14 fe dd bc 43 4b 17 bd
       -0.061301287 0.0016555928 -0.027098693 -0.03693701

bn.weight f4 [128]
000000 00 00 80 3f 00 00 80 3f 00 00 80 3f 00 00 80 3f
       1.0 1.0 1.0 1.0
000010 00 00 80 3f 00 00 80 3f 00 00 80 3f 00 00 80 3f
       1.0 1.0 1.0 1.0
000020 00 00 80 3f 00 00 80 3f 00 00 80 3f 00 00 80 3f
       1.0 1.0 1.0 1.0
000030 00 00 80 3f 00 00 80 3f 00 00 80 3f 00 00 80 3f
       1.0 1.0 1.0 1.0
000040 00 00 80 3f 00 00 80 3f 00 00 80 3f 00 00 80 3f
       1.0 1.0 1.0 1.0
000050 00 00 80 3f 00 00 80 3f 00 00 80 3f 00 00 80 3f
       1.0 1.0 1.0 1.0
000060 00 00 80 3f 00 00 80 3f 00 00 80 3f 00 00 80 3f
       1.0 1.0 1.0 1.0
000070 00 00 80 3f 00 00 80 3f 00 00 80 3f 00 00 80 3f
       1.0 1.0 1.0 1.0
000080 00 00 80 3f 00 00 80 3f 00 00 80 3f 00 00 80 3f
       1.0 1.0 1.0 1.0
000090 00 00 80 3f 00 00 80 3f 00 00 80 3f 00 00 80 3f
       1.0 1.0 1.0 1.0
0000a0 00 00 80 3f 00 00 80 3f 00 00 80 3f 00 00 80 3f
       1.0 1.0 1.0 1.0
0000b0 00 00 80 3f 00 00 80 3f 00 00 80 3f 00 00 80 3f
       1.0 1.0 1.0 1.0
0000c0 00 00 80 3f 00 00 80 3f 00 00 80 3f 00 00 80 3f
       1.0 1.0 1.0 1.0
0000d0 00 00 80 3f 00 00 80 3f 00 00 80 3f 00 00 80 3f
       1.0 1.0 1.0 1.0
0000e0 00 00 80 3f 00 00 80 3f 00 00 80 3f 00 00 80 3f
       1.0 1.0 1.0 1.0
0000f0 00 00 80 3f 00 00 80 3f 00 00 80 3f 00 00 80 3f
       1.0 1.0 1.0 1.0
000100 00 00 80 3f 00 00 80 3f 00 00 80 3f 00 00 80 3f
       1.0 1.0 1.0 1.0
000110 00 00 80 3f 00 00 80 3f 00 00 80 3f 00 00 80 3f
       1.0 1.0 1.0 1.0
000120 00 00 80 3f 00 00 80 3f 00 00 80 3f 00 00 80 3f
       1.0 1.0 1.0 1.0
000130 00 00 80 3f 00 00 80 3f 00 00 80 3f 00 00 80 3f
       1.0 1.0 1.0 1.0
000140 00 00 80 3f 00 00 80 3f 00 00 80 3f 00 00 80 3f
       1.0 1.0 1.0 1.0
000150 00 00 80 3f 00 00 80 3f 00 00 80 3f 00 00 80 3f
       1.0 1.0 1.0 1.0
000160 00 00 80 3f 00 00 80 3f 00 00 80 3f 00 00 80 3f
       1.0 1.0 1.0 1.0
000170 00 00 80 3f 00 00 80 3f 00 00 80 3f 00 00 80 3f
       1.0 1.0 1.0 1.0
000180 00 00 80 3f 00 00 80 3f 00 00 80 3f 00 00 80 3f
       1.0 1.0 1.0 1.0
000190 00 00 80 3f 00 00 80 3f 00 00 80 3f 00 00 80 3f
       1.0 1.0 1.0 1.0
0001a0 00 00 80 3f 00 00 80 3f 00 00 80 3f 00 00 80 3f
       1.0 1.0 1.0 1.0
0001b0 00 00 80 3f 00 00 80 3f 00 00 80 3f 00 00 80 3f
       1.0 1.0 1.0 1.0
0001c0 00 00 80 3f 00 00 80 3f 00 00 80 3f 00 00 80 3f
       1.0 1.0 1.0 1.0
0001d0 00 00 80 3f 00 00 80 3f 00 00 80 3f 00 00 80 3f
       1.0 1.0 1.0 1.0
0001e0 00 00 80 3f 00 00 80 3f 00 00 80 3f 00 00 80 3f
       1.0 1.0 1.0 1.0
0001f0 00 00 80 3f 00 00 80 3f 00 00 80 3f 00 00 80 3f
       1.0 1.0 1.0 1.0

bn.bias f4 [128]
000000 00 00 00 00 00 00 00 00 00 00 00 00 00 00 00 00
       0.0 0.0 0.0 0.0
000010 00 00 00 00 00 00 00 00 00 00 00 00 00 00 00 00
       0.0 0.0 0.0 0.0
000020 00 00 00 00 00 00 00 00 00 00 00 00 00 00 00 00
       0.0 0.0 0.0 0.0
000030 00 00 00 00 00 00 00 00 00 00 00 00 00 00 00 00
       0.0 0.0 0.0 0.0
000040 00 00 00 00 00 00 00 00 00 00 00 00 00 00 00 00
       0.0 0.0 0.0 0.0
000050 00 00 00 00 00 00 00 00 00 00 00 00 00 00 00 00
       0.0 0.0 0.0 0.0
000060 00 00 00 00 00 00 00 00 00 00 00 00 00 00 00 00
       0.0 0.0 0.0 0.0
000070 00 00 00 00 00 00 00 00 00 00 00 00 00 00 00 00
       0.0 0.0 0.0 0.0
000080 00 00 00 00 00 00 00 00 00 00 00 00 00 00 00 00
       0.0 0.0 0.0 0.0
000090 00 00 00 00 00 00 00 00 00 00 00 00 00 00 00 00
       0.0 0.0 0.0 0.0
0000a0 00 00 00 00 00 00 00 00 00 00 00 00 00 00 00 00
       0.0 0.0 0.0 0.0
0000b0 00 00 00 00 00 00 00 00 00 00 00 00 00 00 00 00
       0.0 0.0 0.0 0.0
0000c0 00 00 00 00 00 00 00 00 00 00 00 00 00 00 00 00
       0.0 0.0 0.0 0.0
0000d0 00 00 00 00 00 00 00 00 00 00 00 00 00 00 00 00
       0.0 0.0 0.0 0.0
0000e0 00 00 00 00 00 00 00 00 00 00 00 00 00 00 00 00
       0.0 0.0 0.0 0.0
0000f0 00 00 00 00 00 00 00 00 00 00 00 00 00 00 00 00
       0.0 0.0 0.0 0.0
000100 00 00 00 00 00 00 00 00 00 00 00 00 00 00 00 00
       0.0 0.0 0.0 0.0
000110 00 00 00 00 00 00 00 00 00 00 00 00 00 00 00 00
       0.0 0.0 0.0 0.0
000120 00 00 00 00 00 00 00 00 00 00 00 00 00 00 00 00
       0.0 0.0 0.0 0.0
000130 00 00 00 00 00 00 00 00 00 00 00 00 00 00 00 00
       0.0 0.0 0.0 0.0
000140 00 00 00 00 00 00 00 00 00 00 00 00 00 00 00 00
       0.0 0.0 0.0 0.0
000150 00 00 00 00 00 00 00 00 00 00 00 00 00 00 00 00
       0.0 0.0 0.0 0.0
000160 00 00 00 00 00 00 00 00 00 00 00 00 00 00 00 00
       0.0 0.0 0.0 0.0
000170 00 00 00 00 00 00 00 00 00 00 00 00 00 00 00 00
       0.0 0.0 0.0 0.0
000180 00 00 00 00 00 00 00 00 00 00 00 00 00 00 00 00
       0.0 0.0 0.0 0.0
000190 00 00 00 00 00 00 00 00 00 00 00 00 00 00 00 00
       0.0 0.0 0.0 0.0
0001a0 00 00 00 00 00 00 00 00 00 00 00 00 00 00 00 00
       0.0 0.0 0.0 0.0
0001b0 00 00 00 00 00 00 00 00 00 00 00 00 00 00 00 00
       0.0 0.0 0.0 0.0
0001c0 00 00 00 00 00 00 00 00 00 00 00 00 00 00 00 00
       0.0 0.0 0.0 0.0
0001d0 00 00 00 00 00 00 00 00 00 00 00 00 00 00 00 00
       0.0 0.0 0.0 0.0
0001e0 00 00 00 00 00 00 00 00 00 00 00 00 00 00 00 00
       0.0 0.0 0.0 0.0
0001f0 00 00 00 00 00 00 00 00 00 00 00 00 00 00 00 00
       0.0 0.0 0.0 0.0

bn.running_mean f4 [128]
000000 00 00 00 00 00 00 00 00 00 00 00 00 00 00 00 00
       0.0 0.0 0.0 0.0
000010 00 00 00 00 00 00 00 00 00 00 00 00 00 00 00 00
       0.0 0.0 0.0 0.0
000020 00 00 00 00 00 00 00 00 00 00 00 00 00 00 00 00
       0.0 0.0 0.0 0.0
000030 00 00 00 00 00 00 00 00 00 00 00 00 00 00 00 00
       0.0 0.0 0.0 0.0
000040 00 00 00 00 00 00 00 00 00 00 00 00 00 00 00 00
       0.0 0.0 0.0 0.0
000050 00 00 00 00 00 00 00 00 00 00 00 00 00 00 00 00
       0.0 0.0 0.0 0.0
000060 00 00 00 00 00 00 00 00 00 00 00 00 00 00 00 00
       0.0 0.0 0.0 0.0
000070 00 00 00 00 00 00 00 00 00 00 00 00 00 00 00 00
       0.0 0.0 0.0 0.0
000080 00 00 00 00 00 00 00 00 00 00 00 00 00 00 00 00
       0.0 0.0 0.0 0.0
000090 00 00 00 00 00 00 00 00 00 00 00 00 00 00 00 00
       0.0 0.0 0.0 0.0
0000a0 00 00 00 00 00 00 00 00 00 00 00 00 00 00 00 00
       0.0 0.0 0.0 0.0
0000b0 00 00 00 00 00 00 00 00 00 00 00 00 00 00 00 00
       0.0 0.0 0.0 0.0
0000c0 00 00 00 00 00 00 00 00 00 00 00 00 00 00 00 00
       0.0 0.0 0.0 0.0
0000d0 00 00 00 00 00 00 00 00 00 00 00 00 00 00 00 00
       0.0 0.0 0.0 0.0
0000e0 00 00 00 00 00 00 00 00 00 00 00 00 00 00 00 00
       0.0 0.0 0.0 0.0
0000f0 00 00 00 00 00 00 00 00 00 00 00 00 00 00 00 00
       0.0 0.0 0.0 0.0
000100 00 00 00 00 00 00 00 00 00 00 00 00 00 00 00 00
       0.0 0.0 0.0 0.0
000110 00 00 00 00 00 00 00 00 00 00 00 00 00 00 00 00
       0.0 0.0 0.0 0.0
000120 00 00 00 00 00 00 00 00 00 00 00 00 00 00 00 00
       0.0 0.0 0.0 0.0
000130 00 00 00 00 00 00 00 00 00 00 00 00 00 00 00 00
       0.0 0.0 0.0 0.0
000140 00 00 00 00 00 00 00 00 00 00 00 00 00 00 00 00
       0.0 0.0 0.0 0.0
000150 00 00 00 00 00 00 00 00 00 00 00 00 00 00 00 00
       0.0 0.0 0.0 0.0
000160 00 00 00 00 00 00 00 00 00 00 00 00 00 00 00 00
       0.0 0.0 0.0 0.0
000170 00 00 00 00 00 00 00 00 00 00 00 00 00 00 00 00
       0.0 0.0 0.0 0.0
000180 00 00 00 00 00 00 00 00 00 00 00 00 00 00 00 00
       0.0 0.0 0.0 0.0
000190 00 00 00 00 00 00 00 00 00 00 00 00 00 00 00 00
       0.0 0.0 0.0 0.0
0001a0 00 00 00 00 00 00 00 00 00 00 00 00 00 00 00 00
       0.0 0.0 0.0 0.0
0001b0 00 00 00 00 00 00 00 00 00 00 00 00 00 00 00 00
       0.0 0.0 0.0 0.0
0001c0 00 00 00 00 00 00 00 00 00 00 00 00 00 00 00 00
       0.0 0.0 0.0 0.0
0001d0 00 00 00 00 00 00 00 00 00 00 00 00 00 00 00 00
       0.0 0.0 0.0 0.0
0001e0 00 00 00 00 00 00 00 00 00 00 00 00 00 00 00 00
       0.0 0.0 0.0 0.0
0001f0 00 00 00 00 00 00 00 00 00 00 00 00 00 00 00 00
       0.0 0.0 0.0 0.0

bn.running_var f4 [128]
000000 00 00 80 3f 00 00 80 3f 00 00 80 3f 00 00 80 3f
       1.0 1.0 1.0 1.0
000010 00 00 80 3f 00 00 80 3f 00 00 80 3f 00 00 80 3f
       1.0 1.0 1.0 1.0
000020 00 00 80 3f 00 00 80 3f 00 00 80 3f 00 00 80 3f
       1.0 1.0 1.0 1.0
000030 00 00 80 3f 00 00 80 3f 00 00 80 3f 00 00 80 3f
       1.0 1.0 1.0 1.0
000040 00 00 80 3f 00 00 80 3f 00 00 80 3f 00 00 80 3f
       1.0 1.0 1.0 1.0
000050 00 00 80 3f 00 00 80 3f 00 00 80 3f 00 00 80 3f
       1.0 1.0 1.0 1.0
000060 00 00 80 3f 00 00 80 3f 00 00 80 3f 00 00 80 3f
       1.0 1.0 1.0 1.0
000070 00 00 80 3f 00 00 80 3f 00 00 80 3f 00 00 80 3f
       1.0 1.0 1.0 1.0
000080 00 00 80 3f 00 00 80 3f 00 00 80 3f 00 00 80 3f
       1.0 1.0 1.0 1.0
000090 00 00 80 3f 00 00 80 3f 00 00 80 3f 00 00 80 3f
       1.0 1.0 1.0 1.0
0000a0 00 00 80 3f 00 00 80 3f 00 00 80 3f 00 00 80 3f
       1.0 1.0 1.0 1.0
0000b0 00 00 80 3f 00 00 80 3f 00 00 80 3f 00 00 80 3f
       1.0 1.0 1.0 1.0
0000c0 00 00 80 3f 00 00 80 3f 00 00 80 3f 00 00 80 3f
       1.0 1.0 1.0 1.0
0000d0 00 00 80 3f 00 00 80 3f 00 00 80 3f 00 00 80 3f
       1.0 1.0 1.0 1.0
0000e0 00 00 80 3f 00 00 80 3f 00 00 80 3f 00 00 80 3f
       1.0 1.0 1.0 1.0
0000f0 00 00 80 3f 00 00 80 3f 00 00 80 3f 00 00 80 3f
       1.0 1.0 1.0 1.0
000100 00 00 80 3f 00 00 80 3f 00 00 80 3f 00 00 80 3f
       1.0 1.0 1.0 1.0
000110 00 00 80 3f 00 00 80 3f 00 00 80 3f 00 00 80 3f
       1.0 1.0 1.0 1.0
000120 00 00 80 3f 00 00 80 3f 00 00 80 3f 00 00 80 3f
       1.0 1.0 1.0 1.0
000130 00 00 80 3f 00 00 80 3f 00 00 80 3f 00 00 80 3f
       1.0 1.0 1.0 1.0
000140 00 00 80 3f 00 00 80 3f 00 00 80 3f 00 00 80 3f
       1.0 1.0 1.0 1.0
000150 00 00 80 3f 00 00 80 3f 00 00 80 3f 00 00 80 3f
       1.0 1.0 1.0 1.0
000160 00 00 80 3f 00 00 80 3f 00 00 80 3f 00 00 80 3f
       1.0 1.0 1.0 1.0
000170 00 00 80 3f 00 00 80 3f 00 00 80 3f 00 00 80 3f
       1.0 1.0 1.0 1.0
000180 00 00 80 3f 00 00 80 3f 00 00 80 3f 00 00 80 3f
       1.0 1.0 1.0 1.0
000190 00 00 80 3f 00 00 80 3f 00 00 80 3f 00 00 80 3f
       1.0 1.0 1.0 1.0
0001a0 00 00 80 3f 00 00 80 3f 00 00 80 3f 00 00 80 3f
       1.0 1.0 1.0 1.0
0001b0 00 00 80 3f 00 00 80 3f 00 00 80 3f 00 00 80 3f
       1.0 1.0 1.0 1.0
0001c0 00 00 80 3f 00 00 80 3f 00 00 80 3f 00 00 80 3f
       1.0 1.0 1.0 1.0
0001d0 00 00 80 3f 00 00 80 3f 00 00 80 3f 00 00 80 3f
       1.0 1.0 1.0 1.0
0001e0 00 00 80 3f 00 00 80 3f 00 00 80 3f 00 00 80 3f
       1.0 1.0 1.0 1.0
0001f0 00 00 80 3f 00 00 80 3f 00 00 80 3f 00 00 80 3f
       1.0 1.0 1.0 1.0
