model_dir/checkpoint_actor_1.pth (torch_old, 83644 bytes, 10 tensors)

fc1.weight f4 [128, 24]
00000000: 2126 f7bc cf93 01be 6c7e 1dbd dc92 d93d
00000010: 4739 efbc 9c3f 1bbe 8e73 e4bd e9a3 fc3d
00000020: cedd 6fbb 590c 03be 8a7d 81bd 4edc 1bbe
00000030: 13e5 f5bd e2b9 a1be 0b64 a4bd bc74 a8bd
00000040: 3412 9ebc 6c03 7d3d e27b a93d 2e0f 983e
00000050: de84 a1bc 7d38 d5be 1775 13bd 872d 843e
00000060: c9d0 5ebd 2404 91bd d796 eebc 2f9d 65be
00000070: 3b5e d53c 55ba 56be dc6b e7bd 72f2 52be
00000080: 71f1 8abd adff 373d 485e 93bc 9452 b9bd
00000090: ecb6 e7bd 7f1c 8fbe 5f30 97bd 9986 edbc
000000a0: 1332 f7bc 4d98 d0bc 2821 cfbd 71c0 873e
000000b0: d11a 06be 85f7 1fbe 34d2 e1bd 2e81 7a3e
000000c0: 0879 97bd 3403 c43e 769c ab3d c525 513e
000000d0: 6d3f 2dbe 1abe ab3d 2b0e cbbc 6a60 353e
000000e0: bbeb c9bc a005 ef3e bb23 7f3d f0ba 073e
000000f0: 43aa f3bb 12ef 81bd e775 013e b7a5 b23d
00000100: 6848 383c bda8 f13e 83fe 543d 7a98 933c
00000110: ebd6 e13c 1472 92be 3a0a 09bd 192d dabd
00000120: ef8b 483c 7dc4 033e 42a2 cbbc 443f 5abe
00000130: ab95 a8bd c1fe 5bbd ab29 223d a9f6 90be
00000140: eb67 b9bd b728 483c f00f ebbc 175e 94be
00000150: 4416 37be 42c2 d73b da21 09bc 6ab8 97be
00000160: cb08 3f3d 6de2 2a3d ddd3 fa3d 5fd2 19bd
00000170: 3d46 f6bd 368d 2cbe 0bdc bf3d e19e afbd
00000180: 024c a93c cc1d a33e 7b6f 953d 5fae 033e
00000190: 4b63 28be a06d 21bd 7f2f 683d 3a20 c23d
000001a0: 23d3 95bc cf12 983e 2f96 ef3c d032 96bd
000001b0: 7ba3 213e bffe 15bd 1c19 bb3c c307 fabd
000001c0: 0cfb 773d b1c4 6b3e 000e 323d f60f ecbe
000001d0: eea8 033f e05e d3bc 2611 a73c d6b0 adbe
000001e0: bc97 8b3e 7bb1 7a3e c8e9 113d 66c6 8ebc
000001f0: bf83 3d3e 3921 cbbe 0e0b a7bc 7da1 a3bd
00000200: f4ef 663d febe be3d b407 8ebb cb59 7abd
00000210: d10b dd3d 142e 9bbc 0fce 01bc e18b 96bd
00000220: 4a6d 393d 01b5 453d c2bc d6bc f039 55bd
00000230: 0d78 083d 47b6 a93e ab58 17be 20d6 a73d
00000240: 4237 6c3d 44d3 0a3e 662d 803d e826 023e
00000250: 96b1 1c3e 0d81 51bd f008 043e 6aaa 693e
00000260: 1faf b7bd e7be f33d b780 8abd e777 8c3c
00000270: a11a b93d 7963 203e 0868 00be 3975 d83d
00000280: ec57 0e3c bb08 8f3d c2d2 f93d e97f 0e3c
00000290: abf9 3d3e 0b27 353e 497c 943d 2285 103d
000002a0: 9068 ad3c 1d44 043d fbbe 16be 4509 b8be
000002b0: 3d93 e53d 525a 20be 6a9e 08be 365a a7be
000002c0: 5a0f 3f3b fc93 4c3d 2445 9dbd f3e2 d9bd
000002d0: 1758 8f3e 1722 2ebd 9bb6 b1bd 3c75 f1bd
000002e0: 2302 bcbd 7752 cf3d d8d3 283d 873d b23d
000002f0: 4090 c13e 7160 47be 4d71 4f3d fa22 32bd
00000300: aac8 cdbd e4fc 9abe 6509 3dbd 4ed0 8ebc
00000310: b989 afbd 1858 4c3d 35fe 8cbd 4961 3ebd
00000320: 8f38 423d 7a03 85be 98ff 593d aa32 323e
00000330: 30fb 39be 0e94 82be 2adc 1d3e 25a9 813e
00000340: 275e 883d 130e 96be a76d ab3d 2655 003e
00000350: 538f 97be 8b69 88be 90f0 b83c 600f 753e
00000360: f8fe 5a3c db37 07be da1a bd3d 2dcb d83d
00000370: 03eb b63d 5b42 143b 6218 f73c 0317 193e
00000380: ae1b 573d d3f3 c9bd fe62 ca37 7f51 a93e
00000390: 3848 db3d c468 8bbe b09f 143e 902a bb3e
000003a0: 0b49 d73c 398c 583d cf2c 9abc 901e 8b3e
000003b0: 2a7b 763d 51d1 f0be 154d 99bd 7089 a93e
000003c0: 8adc a63e 369d a13d 6036 9d3c cc67 de3d
000003d0: 69e5 efbc f1b6 51be d04a 6a3d e70a 303e
000003e0: b7c7 673e bb9c 313e c071 013e 3a4b 3cbe
000003f0: 8800 8abd 3c40 8fbe cd98 503e dece c8bd
-0.030169548 -0.12654041 -0.038450643 0.10623714 -0.029202117 -0.15160984 -0.11154853 0.12335951
-0.0036600712 -0.12797679 -0.06322773 -0.15220758 -0.12006583 -0.3158713 -0.08026894 -0.0822539
-0.01929579 0.06177084 0.08275582 0.2969908 -0.019716676 -0.4164466 -0.036000337 0.25815985
-0.05439833 -0.07080868 -0.02912466 -0.22423242 0.02604591 -0.20969518 -0.112998694 -0.20600298
-0.067843325 0.044921566 -0.017989293 -0.09048954 -0.113141865 -0.27951428 -0.07382273 -0.028994845
-0.030175244 -0.025463248 -0.10113746 0.2651401 -0.13096167 -0.15621765 -0.11026421 0.2446334
-0.07396132 0.38283694 0.08379452 0.20424564 -0.16918726 0.08385868 -0.02478703 0.1771256
-0.024648538 0.4668398 0.062289935 0.13254905 -0.0074360683 -0.06344427 0.12642632 0.08723014
0.011247732 0.4719905 0.052000534 0.018017042 0.027568301 -0.2860266 -0.03345702 -0.10653133
0.012240394 0.12867923 -0.024857644 -0.21313196 -0.08231672 -0.05370975 0.03959052 -0.28313187
-0.09053024 0.012216738 -0.028694123 -0.28978035 -0.17879587 0.0065844366 -0.008369887 -0.29632884
0.046639245 0.041719843 0.12247441 -0.03755414 -0.12025116 -0.16850743 0.09368142 -0.085752256
0.020666126 0.3185867 0.07296654 0.12859486 -0.16444127 -0.039411187 0.05668592 0.09478803
-0.018289154 0.2970185 0.029246418 -0.073339105 0.15785019 -0.036619898 0.022839122 -0.12208512
0.06054215 0.2302425 0.043470383 -0.46105927 0.5142964 -0.025802076 0.02039392 -0.33923978
0.27264202 0.24481766 0.03562334 -0.017428588 0.18507288 -0.39673784 -0.020391013 -0.07989786
0.05638118 0.093137726 -0.0043344144 -0.06112079 0.107932694 -0.01894287 -0.007922663 -0.073508985
0.04527024 0.048268322 -0.026213054 -0.052057207 0.033317614 0.3314688 -0.14779918 0.08195138
0.057669885 0.13557154 0.06258659 0.12710154 0.15302119 -0.051148463 0.12894034 0.22818914
-0.089689486 0.11901646 -0.06762832 0.017147018 0.09038282 0.15662946 -0.12539685 0.105692334
0.008687954 0.06984087 0.12198402 0.008697488 0.18552272 0.17690675 0.07250268 0.035283215
0.021168023 0.03229152 -0.14721291 -0.35944572 0.11209724 -0.15659454 -0.1334168 -0.32686013
0.0029153437 0.049945816 -0.07679203 -0.1063899 0.27996895 -0.04251298 -0.08677407 -0.11789939
-0.09180095 0.10123151 0.041217655 0.08703142 0.37805367 -0.19470383 0.05064516 -0.043490387
-0.10048039 -0.30271065 -0.046151537 -0.017433312 -0.085711904 0.0498887 -0.06884424 -0.046479497
0.04741722 -0.25979215 0.05322227 0.1740214 -0.18162227 -0.25503582 0.15416017 0.2532436
0.06658583 -0.29307613 0.08370524 0.12532482 -0.29601535 -0.26643023 0.022575647 0.23931646
0.013366453 -0.13204901 0.09233637 0.10585628 0.08931544 0.0022622559 0.030162994 0.14950185
0.05251663 -0.09860959 2.4126373e-05 0.3306999 0.10707134 -0.27228367 0.14514041 0.3655591
0.026279947 0.0528681 -0.018820195 0.27171755 0.060176052 -0.47034696 -0.07485405 0.3311267
0.32590133 0.07891314 0.019190967 0.108596414 -0.029284196 -0.20479943 0.057200253 0.17191659
0.22634779 0.17344944 0.12641048 -0.18388072 -0.067383826 -0.27978694 0.20370789 -0.09805082

fc1.bias f4 [128]
00000000: 038c a8bc 22bf 0fbe 7828 903d 840b c1bc
00000010: 9ae2 3fbd 261f bdbd c104 5d3e 4619 1d3e
00000020: 9d4d 6c3e e052 1ebe 7f9a 46bc 8f58 81be
00000030: 5edb 73be 51ed 9a3e 26cd 94be e261 683d
00000040: 15c4 603e 90e6 28bc 61f4 883c d04f 4a3e
00000050: fd20 5f3d c22e 19be d35b 8d3b 62ab 14be
00000060: 8e20 843e 5d98 87bc 6c73 a1bc e0e1 a2bc
00000070: d535 b73d 3987 33be ff3e 7bbc 075c f6bd
00000080: c42b 2dbe f0f8 ea39 b6a8 533d b5fa 3a3e
00000090: d94b 353e 7686 fa3d 8a28 663e f740 0cbe
000000a0: 94e4 9b3d 1b99 663e c8d9 b83b d30c 9b3d
000000b0: d786 f6bd afe2 90bd 76ce 1cbe 07cf c93d
000000c0: 8790 c13d 4155 08be 1e46 08be de4d 043e
000000d0: 8780 503e 58f8 11be dc00 133a 1480 d6bd
000000e0: a773 963d d82c 863d 93c6 e0bc d79b 073e
000000f0: 3697 cabb 0ec5 57be 468e 893d 4f03 65bd
00000100: f1de 693d bc53 13be 74b6 213e 1d18 533d
00000110: a396 1b3c 98ca 7a3e 0ea7 f9bc 23eb 39be
00000120: c75d ff3b baaa 9f3e dd28 77be 95d9 4e3d
00000130: d2c3 c93c 8fbb 763d c5f6 87bd 20b5 193e
00000140: edf4 23be bfb3 5fbd 5907 19be 7512 3dbc
00000150: 01e9 063e 8d9e 08be 752b f5bd 092c 583d
00000160: 607d 1fbe 0d8e 573e 7b5f 863d 46f4 0cbd
00000170: dead 833e 4a86 a83d 7b5a 3abe f711 aa3d
00000180: 89a4 0e3e 6232 24be 7dae cabd a102 31be
00000190: 335b a8be 7606 0b3e 5abc 9d3e f780 a6bd
000001a0: cf32 233d 051e b23c 5753 023d 5b18 1a3e
000001b0: c9b5 913d f14b 15be 7e5a 04bd 60bc 0f3e
000001c0: 1a58 b53d 4dd0 a83d 2ecb 793d 0f8c 48bb
000001d0: 5ce3 173d 24ad 1cbe f189 d23c f2ae 46bd
000001e0: 7391 9cbd da87 13be aa80 0c3e 511b 62bd
000001f0: 7648 9dbd c648 d6bd 3618 b43b e7ab 1f3e
-0.020574575 -0.14037755 0.07038969 -0.023565061 -0.046846963 -0.09234457 0.21583845 0.15341672
0.23076482 -0.15461302 -0.012121796 -0.25262877 -0.2381415 0.30259183 -0.29062766 0.056733973
0.219498 -0.010308877 0.016718091 0.19757009 0.05447482 -0.14959243 0.004313925 -0.14518502
0.25806087 -0.016552145 -0.019708358 -0.019883096 0.089458145 -0.17532052 -0.015334844 -0.120292716
-0.16911227 0.0004481743 0.051674567 0.182597 0.17704715 0.12232678 0.22476402 -0.13696657
0.07611957 0.22519343 0.005641196 0.075708054 -0.120374374 -0.070744865 -0.15313134 0.098539405
0.094513945 -0.13313772 -0.13307998 0.12920329 0.2036153 -0.14254892 0.0005607733 -0.10473648
0.07346278 0.06551522 -0.027438438 0.13243042 -0.0061825765 -0.21071264 0.0671659 -0.05591136
0.05709738 -0.14387411 0.15792257 0.051536668 0.009496364 0.24491346 -0.030475166 -0.18156104
0.0077931616 0.31184942 -0.24136682 0.05050047 0.024629507 0.060237464 -0.066388644 0.150105
-0.160114 -0.05461478 -0.14944209 -0.011540045 0.13174821 -0.13341732 -0.119711794 0.05277637
-0.1557517 0.21050282 0.0656118 -0.034412645 0.25718588 0.082287386 -0.18198578 0.08304208
0.13929953 -0.16034845 -0.09896562 -0.17286159 -0.3288208 0.13576683 0.30807763 -0.08130067
0.039843377 0.02174283 0.03181776 0.15048353 0.07114751 -0.1457975 -0.032312863 0.14036703
0.08854695 0.08242855 0.060984783 -0.003060106 0.03708206 -0.15300423 0.025700541 -0.048506685
-0.0764493 -0.14407292 0.13720956 -0.055201832 -0.076798365 -0.10463099 0.00549605 0.1559292

fc2.weight f4 [128, 128]
00000000: 5574 76bd 2725 7cbd e898 04be 25e1 50be
00000010: 0dfd 3a3b 498d 5fbd d92c 223e 388e 853d
00000020: 19be 0e3d c20b d53d 24d7 fd3d 2f8b 103c
00000030: 945e 623c 58dd 16bd 0714 09bd 8dfc 073e
00000040: f588 ac3c f9b5 a7bd e191 853d 46e1 953b
00000050: c49a dc3d 4bd0 69bd 5ecf cebd a707 ae3c
00000060: 31db 423e 5617 c63d 605f 3fbe ed15 013e
00000070: 0587 13be 12e0 d7bc a178 713c 02a4 893e
00000080: 9ac5 c2bc a124 f53c 43ba d7bd ebb0 753d
00000090: 5f0b 413e 18f5 593d 87c3 3b3d 1895 2a3e
000000a0: ff4f f0bc 8524 cfbd c76e 0ebe f3dc 613c
000000b0: b346 a1bc 23fb 0ebd 8e54 36bd 01f5 003d
000000c0: 33a1 683b 9f17 f5bc 0098 ecbd f4d0 08be
000000d0: 2619 4abc 6f4a 31be e514 c73d f272 9a3d
000000e0: 563a 98bd 62cd abbd 0a62 f73d 65c6 9f3b
000000f0: 4878 babc 65df be3d 9db7 163d 2d54 d63d
00000100: 26f7 f83d 92ed 8bbd 44cb 63bc 6447 713d
00000110: d7f7 29be dace debc 5175 0c3d f50f dbbd
00000120: 3ea1 8cbe 75f7 133e 5a4e 15be 9e29 e63d
00000130: 188d c23d aa62 58bd e4bc 853d 8b8d d13d
00000140: 3da4 26be 8e78 e93d 0af1 63bd 7340 4abe
00000150: 37d7 c53b 9adc 663d 9928 3dbe 856b 4f3d
00000160: 3ba9 c2bc ff22 4cbe b0a9 4bbd 6c77 aa3b
00000170: 6a20 523d 95fa e93d 1438 993d 6398 9abe
00000180: bbd6 23be 1875 f83c e38e 033d 8890 0ebe
00000190: b170 a73d 10bf 08be e8a3 ddbc ab50 07be
000001a0: 29dd 50bd 8d7c c13d 9ac1 6c3e 184e b9bd
000001b0: 38d2 3bbe 138f ba3b 3436 cdbd 20a7 b13d
000001c0: af56 19bc b2d6 dcbd 43a8 afbd 67ff db3b
000001d0: e1b8 cbbd 7a2d 3ebe 8507 8dbe d0bb ca3d
000001e0: ed8d 643c 90df 363c b037 363d fd01 e13d
000001f0: 15e3 643d ad01 b53d c7d1 dabd 1b01 3abd
00000200: 0b7c 263d e4d4 3b3e 6e8a 5ebe c015 073e
00000210: a2d4 0bbe 41cc 813e bf71 07be ef43 6dbe
00000220: ac30 1f3d 6789 e63d 244b 2ebe 1793 96bc
00000230: c0e0 fc3d 8b97 4b3d 06c0 343d a57a 0abe
00000240: 918b 2c3d c35e 0abd 9f2f 93bd 2bb9 79be
00000250: 2562 4fbe d538 093d 60a9 aa3c 08a7 443d
00000260: 4839 f4be c900 f6be 798e 77be 53ea 6abe
00000270: 6d31 09be 81b5 863d 4cab f33c 80ef 89be
00000280: 2306 543c 96a1 65be 743b 97be 5d98 5f3c
00000290: d03f 19be 9707 d63d 0aa8 a2bd 3b04 0abe
000002a0: ecfa ad3d 1e8d 06be a3ab 0b3f 7a17 a5bd
000002b0: 8bf6 b3be bc13 f33d e591 283e 59a9 7d3e
000002c0: 1f88 b13d 6b72 23bc 6284 8b3e 9e94 6d3e
000002d0: 33bb 023e 33cd d339 684a 23bc bfa4 073d
000002e0: bf28 32bc 6787 9a3e fe76 90be 6fdf 1ebd
000002f0: ec7d 833e 0cb4 2abe 7a1e 4bbd e2d7 b7bd
00000300: 7f24 1abe 14c2 cb3d b71e 7d3e b420 25bd
00000310: 95ec 9abd 089e b63c 8dd5 a83d a8c1 a13e
00000320: d694 1d3c 7d29 11be 05dd 333e fa2a 15ba
00000330: f340 6a3d d45d 34be c467 e2be 9180 b4bd
00000340: 2fdc 06be f611 82bd ebd7 c7bd baa9 cfbd
00000350: cb9e 243d 8b77 66be 97e0 d33d c44b 153e
00000360: cd1c 8cbc 3fcf 1abe c401 b4bc 6b98 0b3e
00000370: 200c 9ebc 8a08 793e bf6b 423e afee 0b3e
00000380: a7d3 e13d 47f0 433e f57d 2f3e 9b53 bfbe
00000390: 132b 073d ecf7 b6bd 530a 8cbd 3100 1ebe
000003a0: 864b 91be 521a 2fbe cc90 383e b097 233d
000003b0: 9ae6 953d 4ba9 0dbd a2ff 1fbe 1ec1 e7bd
000003c0: fc91 a9be 1281 ea3d 7a09 bfbd cd95 9bbd
000003d0: d3bc 103d dd06 2a3e 125c c43d 0bd1 81bd
000003e0: 6bdc 58bd 43dd 56bd f5a2 90bd 72d6 fbbd
000003f0: 1412 e6bd 92db bfbe 74db 223d 905c 85be
-0.060169537 -0.06155887 -0.12948954 -0.20398386 0.0028532178 -0.0545781 0.1583742 0.06521267
0.03484926 0.10402633 0.123945504 0.008822246 0.0138164945 -0.036832184 -0.033466365 0.13279934
0.0210614 -0.081890054 0.06521965 0.004573974 0.10771707 -0.05708341 -0.10098146 0.021243883
0.19028927 0.0967242 -0.18688726 0.1260602 -0.14406975 -0.026351962 0.014738233 0.2688294
-0.023775864 0.029924693 -0.105335735 0.059983175 0.18851994 0.053212255 0.045840766 0.16658437
-0.02933502 -0.101143874 -0.13909446 0.013785589 -0.019687032 -0.03490747 -0.04451423 0.031483654
0.0035496473 -0.02991849 -0.11552429 -0.1336096 -0.012335097 -0.1731355 0.09720782 0.07541455
-0.07433002 -0.08388783 0.12079246 0.0048759454 -0.022762433 0.09319953 0.0367962 0.10465274
0.12156515 -0.06832422 -0.013903443 0.058905974 -0.1659845 -0.027198244 0.03429157 -0.10696403
-0.27466768 0.14449866 -0.1458067 0.112384066 0.09499568 -0.05282847 0.06530169 0.10232075
-0.1627359 0.11399947 -0.055649795 -0.19751148 0.0060376185 0.056362726 -0.18472518 0.050639648
-0.023762336 -0.19935225 -0.049722373 0.0052022245 0.051300444 0.11424748 0.07481399 -0.30194387
-0.15999882 0.030329272 0.03211869 -0.13922322 0.08175791 -0.13354135 -0.027055696 -0.13214366
-0.050992165 0.09447584 0.23120728 -0.09048098 -0.18341911 0.0056933253 -0.10020104 0.08674455
-0.009359046 -0.107831374 -0.08577015 0.006713796 -0.09947372 -0.18572035 -0.275448 0.09899104
0.013949853 0.0111617 0.0444867 0.10986707 0.055880625 0.0883821 -0.10684543 -0.04541121
0.04064564 0.1834293 -0.21732494 0.1319189 -0.13655332 0.25351146 -0.13226984 -0.23170446
0.038864776 0.11256676 -0.17020851 -0.018380685 0.12347555 0.04970507 0.04412844 -0.13523348
0.04212529 -0.033781778 -0.071868174 -0.24387042 -0.20252283 0.033501465 0.020832717 0.048010856
-0.47699952 -0.48047474 -0.24175443 -0.2294095 -0.1339776 0.06577588 0.029744767 -0.26940536
0.012940916 -0.22424921 -0.29537547 0.013647166 -0.14965749 0.104506664 -0.07942207 -0.13478176
0.08495125 -0.1313977 0.5455877 -0.080611184 -0.35149035 0.118689984 0.16461904 0.24771632
0.08668541 -0.00997601 0.27249438 0.23201224 0.12766723 0.00040397941 -0.00996647 0.0331161
-0.010873972 0.3018143 -0.28215784 -0.0387873 0.25682008 -0.16670245 -0.04958961 -0.08976723
-0.15052985 0.09949127 0.24718748 -0.04031439 -0.07564656 0.022292152 0.082438566 0.3159306
0.009618005 -0.14175983 0.17564781 -0.0005690303 0.057190847 -0.17613918 -0.44219792 -0.088135846
-0.13169931 -0.06351082 -0.0975798 -0.10139795 0.0401905 -0.2250654 0.103455715 0.14579684
-0.017103577 -0.1511812 -0.021973498 0.13632362 -0.019292891 0.24319664 0.18986414 0.1366527
0.110266976 0.19134627 0.17137893 -0.37368473 0.033000063 -0.08934006 -0.06837907 -0.1542976
-0.28377932 -0.17099884 0.18023986 0.039939582 0.073193744 -0.03458528 -0.1562486 -0.11316131
-0.3311919 0.114503995 -0.093279794 -0.075969316 0.035336327 0.1660418 0.095878735 -0.063387
-0.052944582 -0.052457105 -0.070623316 -0.122967616 -0.11233917 -0.37472206 0.039760068 -0.26047182

fc2.bias f4 [128]
00000000: 0c9b 54be dd52 f7bd dd1b 593d 8f95 3b3e
00000010: 0961 39bd c0fb ac3d 0c3c 85bc 8fed 943c
00000020: 038f d43d ea80 ce3d 5169 123d dbd0 973d
00000030: 12d0 c0bd b4ca 883d 7566 2cbd 97bd 95bd
00000040: d06f 99ba ddca d6bd 1b6b 05be db0b aabc
00000050: 109f c63a 00cf 0e3d 89b7 79bd 9a6d 043e
00000060: a569 7cbd c61e 193c 6fdc e0bd 31c3 f73a
00000070: 24f3 32bd 54b4 81bd ed23 32bd 610c 91bd
00000080: ed5d 383a d1d0 cabd 62ff b2bc 02ca a4bc
00000090: c7da fabc d21a 233b 43ee c3bd e565 b33d
000000a0: c029 463d d72e 2ebc 31d9 2c3d b500 003e
000000b0: 6e0d 83bd 0cd3 81bc 77b0 11bd daef bebd
000000c0: c7dd 20bd b6b3 c03c d4f7 23be 6ea2 4bbb
000000d0: 2f71 533d b6de 7638 4b37 c13d 1c8e bcbd
000000e0: 1628 b13d d98d d9bd 3385 fbbc 5b14 e63d
000000f0: ad36 493c 9374 1dbe 451b 233c 9367 98bd
00000100: b6aa 9dbd 74b2 c3bd 35a0 e5bc ac72 43bd
00000110: 1125 463d a2b8 b9bc 01b9 3bbd 724c babd
00000120: b93f 4dbd f083 353d c1c5 10be 4865 9abc
00000130: d936 023e ec5d bebd 7dfb 57be 332a 8c3d
00000140: 1b05 dabd a0ea ad3d aa30 18bd 1659 1fbc
00000150: f5af ccbd 5e56 a63c f066 073e 4242 2c3d
00000160: d9eb b8bc 4343 213d 1926 19bb a038 623b
00000170: 546d dabd e49e aebc b835 83bc 8227 adbd
00000180: 5599 fbbd 49e0 75bd 044d b03d 8603 87bc
00000190: eb67 8e3d 0a92 de3c a48b e93d 7bc5 c03d
000001a0: 550c 553c 0b00 c6bd 6e7d 193e 9822 6a3d
000001b0: 9398 2d3d 5b34 bdbd c419 4c3d 2707 04be
000001c0: a08f 8a3d 2530 a3bc 44a7 1dbe 9df8 8ebc
000001d0: da16 27bd c4ef 433d c0e1 04bd 3562 ab3c
000001e0: a034 36be 27f2 bf3c 54e8 5a3b c3db a53d
000001f0: 6668 87bc 7e25 debd dd0c b23c 7126 c7bd
-0.2076227 -0.12076352 0.053005088 0.18318771 -0.045258556 0.08446455 -0.016263984 0.018179683
0.1037884 0.10083182 0.03574497 0.07412883 -0.09414686 0.066792876 -0.0420899 -0.07311552
-0.0011706296 -0.10487912 -0.13029139 -0.020757606 0.0015153605 0.03486538 -0.06096605 0.12932435
-0.061624188 0.009345716 -0.10979544 0.0018902776 -0.04368891 -0.06333223 -0.043491293 -0.07082439
0.0007033039 -0.0990311 -0.021850292 -0.020115856 -0.0306219 0.0024887812 -0.09566929 0.08759669
0.04837966 -0.010631285 0.042199317 0.1250027 -0.06399046 -0.015847705 -0.03556868 -0.09323092
-0.039274003 0.023523193 -0.16012508 -0.0031072157 0.051621612 5.8858386e-05 0.094343744 -0.09206793
0.08650224 -0.106227584 -0.030703163 0.11234351 0.012281102 -0.15376501 0.009955232 -0.0744163
-0.07698576 -0.095555216 -0.028030494 -0.04771678 0.048375193 -0.022671048 -0.04583073 -0.09096612
-0.0501096 0.04431528 -0.14137937 -0.018847123 0.12716235 -0.09295258 -0.21092029 0.06843986
-0.10645505 0.08492017 -0.037155785 -0.00972583 -0.09994499 0.020304855 0.13222861 0.042055376
-0.022573398 0.039370786 -0.0023368655 0.0034518614 -0.10665384 -0.021316 -0.016016826 -0.08454801
-0.12285105 -0.060028348 0.086084396 -0.016481172 0.069534145 0.027169246 0.114035875 0.094126664
0.0130034285 -0.09667977 0.14989254 0.057161897 0.042381834 -0.09238502 0.04982926 -0.12893353
0.067656755 -0.019920418 -0.15395838 -0.017452532 -0.040793277 0.04783608 -0.032441854 0.020920852
-0.17793512 0.023430897 0.0033402639 0.08098557 -0.016529273 -0.10846995 0.02173465 -0.09724129

fc3.weight f4 [2, 128]
00000000: 7ae5 36be b258 6e3e 40ef dabd d62d 763e
00000010: 2538 3bbe 1077 ec3c fa12 5bbe e2fa 173d
00000020: 0c38 d3bb d75d 693c 3f46 af3d 9c5a 0fbe
00000030: 849b 8b3d 9d73 29bd ee91 11bf 869b aa3d
00000040: 31db 133e 3cef d5bd c211 d6bb 7c06 a9be
00000050: 648b a9be b7a7 0ebe 0ebd 9c3d a74d 463e
00000060: 8688 f93d b995 883e 4750 613e 286d 84be
00000070: b529 debd c904 493d 8c2a 8fbd adb1 f73c
00000080: 25de 31be fdca 68be e6d0 48be d63f ebbc
00000090: ff8d 0a3e cde3 9b3d b7ee cabe f34c 8d3e
000000a0: 0475 11bc 7230 94be 2987 043e f7ee ba3e
000000b0: 3efd 11be 549b 92be 4aa6 45bd ba27 febd
000000c0: bb4e 6bbe 6a39 cdbd c444 81bc a821 283e
000000d0: e8b6 7fbd 2d51 e0bb 5519 853d 062f 323d
000000e0: d770 f4bc 45e7 9e3e c716 fd3c 425c b0be
000000f0: a00a 8ebd ee5d 7dbe bd38 933d 33c7 46bc
00000100: 4162 96be af6b c2be f1ac a7be 4c31 86be
00000110: fbdc 443e fa42 b13e 0a97 913d fb49 fbbe
00000120: cfaf 44bd f0ad 6ebe a3a3 22bc 828f 7abe
00000130: 1a03 483c 4114 03bd 8624 2d3e 3556 873d
00000140: 3eb3 d5bd 64b1 a7be 7ce7 72bd 2152 cdbb
00000150: 4fab 8a3c 55de 3bbe e412 bdbd b4a5 ffbd
00000160: ab4e d5be e9d7 a63c a06a 3abe 8751 bdbc
00000170: fd43 cd3e 0506 ccbe cd53 b73c ce9f 633e
00000180: 245e bfbe 38cd 083d 1f9d 2f3e 5c25 323e
00000190: bfc5 053d 78cc 1d3e a3c0 16be cd85 91bd
000001a0: 6e95 773e 5504 823d 9cf9 583c a796 8fbe
000001b0: 56c7 16be 81b6 a7be 95b9 a33e b1a2 8ebe
000001c0: d86b 15be f26d a5be d371 d7bb f791 3bbe
000001d0: 039d f93d 9860 0a3e 1122 31be afb5 8f3e
000001e0: 3660 3fbe 5a03 2a3e c885 443d 395e 9cbc
000001f0: 6c28 70bd 3d77 86be 4c91 6fbe 8744 a83d
00000200: 145a 073e 49ae 10bf efca 2a3e afe0 69be
00000210: 4c73 163e 9f69 e9be 1f26 bc3c f45a ab3e
00000220: cf9c 663d 955f 363e 0fb6 153e f99b 033d
00000230: 9d23 b1be 05b5 c9be 0ac7 b53e 09ce 28bb
00000240: f180 3e3e cfa5 1ebe 9117 9bbe cf71 febd
00000250: 1488 69bd 59c1 9fbe 8793 fa3d a925 8bbe
00000260: 6f41 92bd 740b 9cbd c4b2 16bd daa3 79bd
00000270: b540 8e3c 71f5 0dbe c564 f43d 81d4 bcbe
00000280: f157 8d3e 7cb2 f03e e2b6 c4be b252 363e
00000290: 23bb e43d 335b 66be 68b9 cb3d 732d a9bd
000002a0: 6ef4 20bf 69db 33be c95a a93d 877d 863e
000002b0: da59 b5be e61a 203d 4c30 aebe 6d5f b0bc
000002c0: 76cc 71be 9728 a0be ab0e 82be 746b c9bc
000002d0: 27ff a0be 78c0 5e3e 77d3 853c 68be 54be
000002e0: 0fb7 2c3e f70c c53d ce1b a2be 691e 223e
000002f0: 773c 81be 80cd bc3c 3d40 6dbe 095a 203e
00000300: 8a35 9cbc f44b 86be dedf 87bc c1f4 4d3d
00000310: f0b7 fe3d 4ca5 44be f32a 78be 5b6a 04bd
00000320: a697 70be 6c65 193d 0e05 653c 0211 623c
00000330: bc54 2c3e 19d9 4dbd db58 09bf 7085 463d
00000340: 3118 2d3e 95ff dc3e 21bb ab3e b749 0abe
00000350: 5e17 eabe 491b e53d e496 9b3e e9e8 cdbe
00000360: 125f 42bb 8a62 473e da51 443e 77f7 5dbf
00000370: ba46 093e 123c b43c d337 3dbf 33cb 73be
00000380: b427 0f3e 21ff 643e d557 dabe 98d0 033e
00000390: e559 683d 507f 96be 04ae 793d 8181 88be
000003a0: 97dd 9bbe 8741 bbbe b797 d93d fecb a3be
000003b0: 4b2c 073e 7893 7f3d 78e4 66bd 76cf 1b3e
000003c0: b436 263e 0a6b a33d 5377 dcbe 5b0b 9abe
000003d0: 4c6c fe3d 3161 0b3e 8301 1f3e 97aa 09be
000003e0: f1c8 1fbe 21f6 2cbd 137c a9be c858 89be
000003f0: f39f 603d 5639 94be 565b 85be db05 97be
-0.17860976 0.23276022 -0.106901646 0.24040923 -0.18283136 0.028865367 -0.21393958 0.037104495
-0.0064458903 0.014243565 0.0855832 -0.13999408 0.068167716 -0.041370023 -0.56863296 0.08330445
0.14439084 -0.10446021 -0.0065328786 -0.3301276 -0.3311416 -0.13931166 0.07653247 0.1936556
0.12184243 0.2667673 0.2200328 -0.2586453 -0.10847799 0.04907683 -0.06990537 0.03023609
-0.17369898 -0.22733684 -0.19610938 -0.028716963 0.1353073 0.07611809 -0.3963525 0.2759777
-0.008877996 -0.2894321 0.12942185 0.3651044 -0.1425676 -0.2863413 -0.04825429 -0.12409921
-0.22979252 -0.100207165 -0.01577986 0.16419089 -0.062430292 -0.0068456144 0.06498972 0.043501876
-0.029838962 0.3103582 0.03089465 -0.34445387 -0.0693562 -0.24742863 0.07188556 -0.012132454
-0.29371837 -0.3797278 -0.3274913 -0.26209486 0.19224922 0.34621412 0.071088865 -0.4907988
-0.048019227 -0.2330854 -0.009926709 -0.24468806 0.012207771 -0.032001738 0.16908464 0.066082396
-0.10434578 -0.32752526 -0.059302792 -0.006265894 0.01692739 -0.18346532 -0.09232119 -0.12482777
-0.4166158 0.020366626 -0.18204737 -0.023110164 0.40090933 -0.39848343 0.022378827 0.2222893
-0.3737651 0.033398837 0.1714978 0.17397064 0.03265929 0.1541003 -0.14721923 -0.071055986
0.24178097 0.063484825 0.013243105 -0.28044626 -0.14724478 -0.32756427 0.31977525 -0.278585
-0.1459192 -0.32310444 -0.006574848 -0.183174 0.12188151 0.1351341 -0.17298152 0.280683
-0.18689045 0.16602841 0.047979146 -0.019087898 -0.0586323 -0.26262847 -0.2339527 0.082161956
0.13217956 -0.5651594 0.16678976 -0.22839616 0.1469242 -0.45588395 0.022967396 0.3346783
0.056301888 0.17809899 0.14620231 0.03213117 -0.34597483 -0.3939592 0.35503417 -0.0025757572
0.18603875 -0.15492938 -0.30291417 -0.12424051 -0.05701454 -0.312022 0.1223517 -0.2717717
-0.07141387 -0.07619372 -0.036791578 -0.060947277 0.01736484 -0.1386316 0.11933283 -0.36880878
0.27606156 0.47011173 -0.3842078 0.17804983 0.11168506 -0.22495727 0.09947473 -0.08260622
-0.6287297 -0.17564167 0.08269269 0.26267645 -0.35420114 0.039088152 -0.34021223 -0.021529878
-0.23613152 -0.31280968 -0.25401816 -0.02458737 -0.31444666 0.21753109 0.016336186 -0.20775759
0.16866706 0.096216135 -0.31661838 0.15831913 -0.25241444 0.023047209 -0.23169036 0.15659346
-0.019068498 -0.26229823 -0.01658624 0.050282244 0.12437427 -0.19203681 -0.24235134 -0.03232799
-0.2349535 0.03745024 0.013978256 0.013798 0.16829199 -0.05025587 -0.5365121 0.0484671
0.1690376 0.43163744 0.33541206 -0.13504682 -0.45720953 0.11186845 0.30388558 -0.4021676
-0.0029658717 0.19471183 0.19171849 -0.86705726 0.13405886 0.0220013 -0.73913306 -0.23807983
0.1397999 0.22362949 -0.42645136 0.12872541 0.056726355 -0.29394007 0.06095697 -0.26661304
-0.30442497 -0.3657343 0.106246404 -0.3199157 0.1320049 0.062396497 -0.05637023 0.15215859
0.16231805 0.079794005 -0.43059787 -0.3008679 0.12423 0.13611294 0.1552792 -0.13443981
-0.15603997 -0.042226914 -0.33102474 -0.26825547 0.05484004 -0.28949994 -0.26046246 -0.29496655

fc3.bias f4 [2]
00000000: 971f 743d a822 393e
0.05960044 0.18079627

bn.weight f4 [128]
00000000: 0000 803f 0000 803f 0000 803f 0000 803f
00000010: 0000 803f 0000 803f 0000 803f 0000 803f
00000020: 0000 803f 0000 803f 0000 803f 0000 803f
00000030: 0000 803f 0000 803f 0000 803f 0000 803f
00000040: 0000 803f 0000 803f 0000 803f 0000 803f
00000050: 0000 803f 0000 803f 0000 803f 0000 803f
00000060: 0000 803f 0000 803f 0000 803f 0000 803f
00000070: 0000 803f 0000 803f 0000 803f 0000 803f
00000080: 0000 803f 0000 803f 0000 803f 0000 803f
00000090: 0000 803f 0000 803f 0000 803f 0000 803f
000000a0: 0000 803f 0000 803f 0000 803f 0000 803f
000000b0: 0000 803f 0000 803f 0000 803f 0000 803f
000000c0: 0000 803f 0000 803f 0000 803f 0000 803f
000000d0: 0000 803f 0000 803f 0000 803f 0000 803f
000000e0: 0000 803f 0000 803f 0000 803f 0000 803f
000000f0: 0000 803f 0000 803f 0000 803f 0000 803f
00000100: 0000 803f 0000 803f 0000 803f 0000 803f
00000110: 0000 803f 0000 803f 0000 803f 0000 803f
00000120: 0000 803f 0000 803f 0000 803f 0000 803f
00000130: 0000 803f 0000 803f 0000 803f 0000 803f
00000140: 0000 803f 0000 803f 0000 803f 0000 803f
00000150: 0000 803f 0000 803f 0000 803f 0000 803f
00000160: 0000 803f 0000 803f 0000 803f 0000 803f
00000170: 0000 803f 0000 803f 0000 803f 0000 803f
00000180: 0000 803f 0000 803f 0000 803f 0000 803f
00000190: 0000 803f 0000 803f 0000 803f 0000 803f
000001a0: 0000 803f 0000 803f 0000 803f 0000 803f
000001b0: 0000 803f 0000 803f 0000 803f 0000 803f
000001c0: 0000 803f 0000 803f 0000 803f 0000 803f
000001d0: 0000 803f 0000 803f 0000 803f 0000 803f
000001e0: 0000 803f 0000 803f 0000 803f 0000 803f
000001f0: 0000 803f 0000 803f 0000 803f 0000 803f
1.0 1.0 1.0 1.0 1.0 1.0 1.0 1.0
1.0 1.0 1.0 1.0 1.0 1.0 1.0 1.0
1.0 1.0 1.0 1.0 1.0 1.0 1.0 1.0
1.0 1.0 1.0 1.0 1.0 1.0 1.0 1.0
1.0 1.0 1.0 1.0 1.0 1.0 1.0 1.0
1.0 1.0 1.0 1.0 1.0 1.0 1.0 1.0
1.0 1.0 1.0 1.0 1.0 1.0 1.0 1.0
1.0 1.0 1.0 1.0 1.0 1.0 1.0 1.0
1.0 1.0 1.0 1.0 1.0 1.0 1.0 1.0
1.0 1.0 1.0 1.0 1.0 1.0 1.0 1.0
1.0 1.0 1.0 1.0 1.0 1.0 1.0 1.0
1.0 1.0 1.0 1.0 1.0 1.0 1.0 1.0
1.0 1.0 1.0 1.0 1.0 1.0 1.0 1.0
1.0 1.0 1.0 1.0 1.0 1.0 1.0 1.0
1.0 1.0 1.0 1.0 1.0 1.0 1.0 1.0
1.0 1.0 1.0 1.0 1.0 1.0 1.0 1.0

bn.bias f4 [128]
00000000: 0000 0000 0000 0000 0000 0000 0000 0000
00000010: 0000 0000 0000 0000 0000 0000 0000 0000
00000020: 0000 0000 0000 0000 0000 0000 0000 0000
00000030: 0000 0000 0000 0000 0000 0000 0000 0000
00000040: 0000 0000 0000 0000 0000 0000 0000 0000
00000050: 0000 0000 0000 0000 0000 0000 0000 0000
00000060: 0000 0000 0000 0000 0000 0000 0000 0000
00000070: 0000 0000 0000 0000 0000 0000 0000 0000
00000080: 0000 0000 0000 0000 0000 0000 0000 0000
00000090: 0000 0000 0000 0000 0000 0000 0000 0000
000000a0: 0000 0000 0000 0000 0000 0000 0000 0000
000000b0: 0000 0000 0000 0000 0000 0000 0000 0000
000000c0: 0000 0000 0000 0000 0000 0000 0000 0000
000000d0: 0000 0000 0000 0000 0000 0000 0000 0000
000000e0: 0000 0000 0000 0000 0000 0000 0000 0000
000000f0: 0000 0000 0000 0000 0000 0000 0000 0000
00000100: 0000 0000 0000 0000 0000 0000 0000 0000
00000110: 0000 0000 0000 0000 0000 0000 0000 0000
00000120: 0000 0000 0000 0000 0000 0000 0000 0000
00000130: 0000 0000 0000 0000 0000 0000 0000 0000
00000140: 0000 0000 0000 0000 0000 0000 0000 0000
00000150: 0000 0000 0000 0000 0000 0000 0000 0000
00000160: 0000 0000 0000 0000 0000 0000 0000 0000
00000170: 0000 0000 0000 0000 0000 0000 0000 0000
00000180: 0000 0000 0000 0000 0000 0000 0000 0000
00000190: 0000 0000 0000 0000 0000 0000 0000 0000
000001a0: 0000 0000 0000 0000 0000 0000 0000 0000
000001b0: 0000 0000 0000 0000 0000 0000 0000 0000
000001c0: 0000 0000 0000 0000 0000 0000 0000 0000
000001d0: 0000 0000 0000 0000 0000 0000 0000 0000
000001e0: 0000 0000 0000 0000 0000 0000 0000 0000
000001f0: 0000 0000 0000 0000 0000 0000 0000 0000
0.0 0.0 0.0 0.0 0.0 0.0 0.0 0.0
0.0 0.0 0.0 0.0 0.0 0.0 0.0 0.0
0.0 0.0 0.0 0.0 0.0 0.0 0.0 0.0
0.0 0.0 0.0 0.0 0.0 0.0 0.0 0.0
0.0 0.0 0.0 0.0 0.0 0.0 0.0 0.0
0.0 0.0 0.0 0.0 0.0 0.0 0.0 0.0
0.0 0.0 0.0 0.0 0.0 0.0 0.0 0.0
0.0 0.0 0.0 0.0 0.0 0.0 0.0 0.0
0.0 0.0 0.0 0.0 0.0 0.0 0.0 0.0
0.0 0.0 0.0 0.0 0.0 0.0 0.0 0.0
0.0 0.0 0.0 0.0 0.0 0.0 0.0 0.0
0.0 0.0 0.0 0.0 0.0 0.0 0.0 0.0
0.0 0.0 0.0 0.0 0.0 0.0 0.0 0.0
0.0 0.0 0.0 0.0 0.0 0.0 0.0 0.0
0.0 0.0 0.0 0.0 0.0 0.0 0.0 0.0
0.0 0.0 0.0 0.0 0.0 0.0 0.0 0.0

bn.running_mean f4 [128]
00000000: 0000 0000 0000 0000 0000 0000 0000 0000
00000010: 0000 0000 0000 0000 0000 0000 0000 0000
00000020: 0000 0000 0000 0000 0000 0000 0000 0000
00000030: 0000 0000 0000 0000 0000 0000 0000 0000
00000040: 0000 0000 0000 0000 0000 0000 0000 0000
00000050: 0000 0000 0000 0000 0000 0000 0000 0000
00000060: 0000 0000 0000 0000 0000 0000 0000 0000
00000070: 0000 0000 0000 0000 0000 0000 0000 0000
00000080: 0000 0000 0000 0000 0000 0000 0000 0000
00000090: 0000 0000 0000 0000 0000 0000 0000 0000
000000a0: 0000 0000 0000 0000 0000 0000 0000 0000
000000b0: 0000 0000 0000 0000 0000 0000 0000 0000
000000c0: 0000 0000 0000 0000 0000 0000 0000 0000
000000d0: 0000 0000 0000 0000 0000 0000 0000 0000
000000e0: 0000 0000 0000 0000 0000 0000 0000 0000
000000f0: 0000 0000 0000 0000 0000 0000 0000 0000
00000100: 0000 0000 0000 0000 0000 0000 0000 0000
00000110: 0000 0000 0000 0000 0000 0000 0000 0000
00000120: 0000 0000 0000 0000 0000 0000 0000 0000
00000130: 0000 0000 0000 0000 0000 0000 0000 0000
00000140: 0000 0000 0000 0000 0000 0000 0000 0000
00000150: 0000 0000 0000 0000 0000 0000 0000 0000
00000160: 0000 0000 0000 0000 0000 0000 0000 0000
00000170: 0000 0000 0000 0000 0000 0000 0000 0000
00000180: 0000 0000 0000 0000 0000 0000 0000 0000
00000190: 0000 0000 0000 0000 0000 0000 0000 0000
000001a0: 0000 0000 0000 0000 0000 0000 0000 0000
000001b0: 0000 0000 0000 0000 0000 0000 0000 0000
000001c0: 0000 0000 0000 0000 0000 0000 0000 0000
000001d0: 0000 0000 0000 0000 0000 0000 0000 0000
000001e0: 0000 0000 0000 0000 0000 0000 0000 0000
000001f0: 0000 0000 0000 0000 0000 0000 0000 0000
0.0 0.0 0.0 0.0 0.0 0.0 0.0 0.0
0.0 0.0 0.0 0.0 0.0 0.0 0.0 0.0
0.0 0.0 0.0 0.0 0.0 0.0 0.0 0.0
0.0 0.0 0.0 0.0 0.0 0.0 0.0 0.0
0.0 0.0 0.0 0.0 0.0 0.0 0.0 0.0
0.0 0.0 0.0 0.0 0.0 0.0 0.0 0.0
0.0 0.0 0.0 0.0 0.0 0.0 0.0 0.0
0.0 0.0 0.0 0.0 0.0 0.0 0.0 0.0
0.0 0.0 0.0 0.0 0.0 0.0 0.0 0.0
0.0 0.0 0.0 0.0 0.0 0.0 0.0 0.0
0.0 0.0 0.0 0.0 0.0 0.0 0.0 0.0
0.0 0.0 0.0 0.0 0.0 0.0 0.0 0.0
0.0 0.0 0.0 0.0 0.0 0.0 0.0 0.0
0.0 0.0 0.0 0.0 0.0 0.0 0.0 0.0
0.0 0.0 0.0 0.0 0.0 0.0 0.0 0.0
0.0 0.0 0.0 0.0 0.0 0.0 0.0 0.0

bn.running_var f4 [128]
00000000: 0000 803f 0000 803f 0000 803f 0000 803f
00000010: 0000 803f 0000 803f 0000 803f 0000 803f
00000020: 0000 803f 0000 803f 0000 803f 0000 803f
00000030: 0000 803f 0000 803f 0000 803f 0000 803f
00000040: 0000 803f 0000 803f 0000 803f 0000 803f
00000050: 0000 803f 0000 803f 0000 803f 0000 803f
00000060: 0000 803f 0000 803f 0000 803f 0000 803f
00000070: 0000 803f 0000 803f 0000 803f 0000 803f
00000080: 0000 803f 0000 803f 0000 803f 0000 803f
00000090: 0000 803f 0000 803f 0000 803f 0000 803f
000000a0: 0000 803f 0000 803f 0000 803f 0000 803f
000000b0: 0000 803f 0000 803f 0000 803f 0000 803f
000000c0: 0000 803f 0000 803f 0000 803f 0000 803f
000000d0: 0000 803f 0000 803f 0000 803f 0000 803f
000000e0: 0000 803f 0000 803f 0000 803f 0000 803f
000000f0: 0000 803f 0000 803f 0000 803f 0000 803f
00000100: 0000 803f 0000 803f 0000 803f 0000 803f
00000110: 0000 803f 0000 803f 0000 803f 0000 803f
00000120: 0000 803f 0000 803f 0000 803f 0000 803f
00000130: 0000 803f 0000 803f 0000 803f 0000 803f
00000140: 0000 803f 0000 803f 0000 803f 0000 803f
00000150: 0000 803f 0000 803f 0000 803f 0000 803f
00000160: 0000 803f 0000 803f 0000 803f 0000 803f
00000170: 0000 803f 0000 803f 0000 803f 0000 803f
00000180: 0000 803f 0000 803f 0000 803f 0000 803f
00000190: 0000 803f 0000 803f 0000 803f 0000 803f
000001a0: 0000 803f 0000 803f 0000 803f 0000 803f
000001b0: 0000 803f 0000 803f 0000 803f 0000 803f
000001c0: 0000 803f 0000 803f 0000 803f 0000 803f
000001d0: 0000 803f 0000 803f 0000 803f 0000 803f
000001e0: 0000 803f 0000 803f 0000 803f 0000 803f
000001f0: 0000 803f 0000 803f 0000 803f 0000 803f
1.0 1.0 1.0 1.0 1.0 1.0 1.0 1.0
1.0 1.0 1.0 1.0 1.0 1.0 1.0 1.0
1.0 1.0 1.0 1.0 1.0 1.0 1.0 1.0
1.0 1.0 1.0 1.0 1.0 1.0 1.0 1.0
1.0 1.0 1.0 1.0 1.0 1.0 1.0 1.0
1.0 1.0 1.0 1.0 1.0 1.0 1.0 1.0
1.0 1.0 1.0 1.0 1.0 1.0 1.0 1.0
1.0 1.0 1.0 1.0 1.0 1.0 1.0 1.0
1.0 1.0 1.0 1.0 1.0 1.0 1.0 1.0
1.0 1.0 1.0 1.0 1.0 1.0 1.0 1.0
1.0 1.0 1.0 1.0 1.0 1.0 1.0 1.0
1.0 1.0 1.0 1.0 1.0 1.0 1.0 1.0
1.0 1.0 1.0 1.0 1.0 1.0 1.0 1.0
1.0 1.0 1.0 1.0 1.0 1.0 1.0 1.0
1.0 1.0 1.0 1.0 1.0 1.0 1.0 1.0
1.0 1.0 1.0 1.0 1.0 1.0 1.0 1.0
